lightning_logs/version_8/checkpoints/epoch=9-step=8599.ckpt (torch_old, 209116 bytes, 36 tensors)

encoder.0.weight f4 [10, 784]
000000 5e 8d 9c bc 6e db 72 ba b3 fa fd bc 13 81 3f 3c
       -0.019110378 -0.0009264265 -0.031003332 0.011688489
000010 45 27 69 3c 93 20 0d 3d 9c 47 3c bc 3c ff 10 bc
       0.014230554 0.034454893 -0.011491682 -0.008849915
000020 0e 80 b9 bc b8 37 63 3b 95 ec 96 3c 9c 03 2e bc
       -0.022644069 0.0034670662 0.018423358 -0.010620978
000030 10 eb ff bd a1 c5 f5 bd c1 5a 98 bd ab cd 08 bd
       -0.124960065 -0.12000585 -0.07439185 -0.033399265
000040 b7 87 30 3a fe ab e3 3c 83 b6 c9 3c ca 30 07 bb
       0.000673409 0.027791973 0.024623161 -0.0020628446
000050 13 ae 1a bb 61 12 d9 bc 7e ae 87 bc 25 83 1b 3a
       -0.0023602291 -0.026498022 -0.016562697 0.0005932323
000060 92 b1 03 3d c1 67 e1 3c 73 48 a4 3c d4 f5 01 bd
       0.032151766 0.027515294 0.020054078 -0.03172858
000070 6a 8e 3c 3c 6c db aa 3c ee e4 82 3c 3e 03 bc 3c
       0.0115085635 0.020856582 0.015978303 0.022950765
000080 bc 88 d6 bb 38 32 cd bc 1f 86 a1 3d 33 eb c1 3d
       -0.0065470617 -0.02504836 0.0788691 0.09468689
000090 11 2b 79 3d 1b 04 46 3d d7 cb 32 3d 84 5a 14 bd
       0.060832087 0.04834376 0.043651428 -0.036219135
0000a0 c5 a2 8f 3c 77 ef fe bd 05 0a 62 bd 51 13 7f 3b
       0.01753367 -0.12448018 -0.055185337 0.0038921426
0000b0 bc 34 11 3b d1 9f 37 3c 32 dc 1f be e6 2a f3 bd
       0.0022156676 0.011207537 -0.15611342 -0.118734166
0000c0 f1 91 0c be d0 72 40 be 19 6f 4a be c6 51 cc bd
       -0.13727547 -0.18793797 -0.19768943 -0.099765345
0000d0 a5 f9 5e 3b 0a 92 f7 bc ca 4b 3c 3b 53 a5 1d bc
       0.0034023311 -0.030221004 0.0028731697 -0.009621936
0000e0 9c de c8 bb b3 7b cc bc ec bb 02 3c af 7e 62 3d
       -0.0061300527 -0.024961328 0.007979374 0.055296596
0000f0 f8 22 17 3c d3 b2 9c 3d da b6 25 3d e6 b2 57 3d
       0.009224646 0.076512955 0.040457584 0.052660845
000100 1e 81 d9 3d cb f4 49 bd 24 5d 66 bd 5a fb 93 3c
       0.1062033 -0.04930572 -0.05624117 0.01806419
000110 6f fd 4f bd c7 b2 44 3c a7 ea 11 3c 77 16 1c 3d
       -0.050778802 0.012005514 0.008906043 0.03810736
000120 66 67 0c 3d d5 90 85 3d 0e 77 6d 3d e6 f9 39 3d
       0.034278296 0.06521765 0.057974868 0.045404337
000130 e2 83 45 bc 49 96 15 bd 60 c0 4b bd 38 c4 53 3c
       -0.012055369 -0.036520276 -0.04974401 0.0129252
000140 fb 45 c4 3c 3d 20 9f 3c 2e 64 15 bc 53 b8 98 3b
       0.02395915 0.019424552 -0.009118123 0.004660645
000150 2a ab 1a 3c e5 97 f7 3c c1 d3 29 3d 31 5f 3e 3e
       0.009440223 0.030223796 0.04146171 0.18591
000160 57 32 7b 3e 5f 24 7d 3d 4b 1f 39 bc 4d d8 3a 3d
       0.24530922 0.061802264 -0.011298965 0.045616437
000170 56 83 b3 3c 35 f2 8d 3c 9c fa 37 bd 31 87 7b 3d
       0.021913212 0.017327407 -0.044916734 0.061408225
000180 48 b9 b4 bb 5a 3f b9 bc 6b 40 4e 3d a8 6a cb 3c
       -0.0055152513 -0.022613216 0.050354403 0.024831131
000190 9d d7 7f 3c c0 75 8a 3c 70 4c 43 bd f8 d2 a1 bd
       0.015615371 0.01690185 -0.04768032 -0.07901567
0001a0 e5 b4 cd bd 70 1b b8 bd 44 bc a7 bd b0 16 83 3d
       -0.100442685 -0.08989608 -0.08190206 0.06400812
0001b0 c2 b0 a1 bc b5 07 74 bd c6 b6 b2 bb bc 20 6e bc
       -0.019737605 -0.059577662 -0.005453917 -0.014534172
0001c0 61 4a bc 3c 16 ba 63 bc ee 7e 92 3d 4e c1 41 3d
       0.022984685 -0.013899347 0.07153116 0.04730349
0001d0 b4 d8 30 bc 94 5b 94 bc 6a 1d 4f bb 9a 68 36 bd
       -0.010793854 -0.018110074 -0.0031603226 -0.04453335
0001e0 31 a4 13 3c 0f 3a ce b9 91 e5 2b bc 36 eb 7c 3c
       0.009011314 -0.0003933464 -0.010491745 0.015436938
0001f0 22 66 77 3c df d5 85 bc 48 dc 91 bc 44 93 e0 3c
       0.015100034 -0.016337333 -0.017805234 0.027413972
000200 c4 e1 a7 3c 3d 56 a5 3c f9 a0 28 bd a9 8a 34 bd
       0.020493396 0.020182723 -0.04116914 -0.04407755
000210 5a db 49 bc dc 3d a6 bd 76 96 d2 bc eb 6c e2 bd
       -0.012320364 -0.081172675 -0.025706511 -0.11055931
000220 b3 b1 63 bd 07 43 f1 bc 55 6c 78 bc 59 5d b3 3c
       -0.05558939 -0.029450906 -0.015162547 0.021895098
000230 13 8a 00 bb 5a 8c fc bc 40 cb 91 bd a8 30 ad bc
       -0.0019613549 -0.030828644 -0.07118845 -0.021141365
000240 2d 2b 74 3c ac 95 fd 3c 6a 45 dc bc f5 a4 2f bd
       0.014902872 0.030955158 -0.026888568 -0.042881925
000250 7b 67 c7 3c 9c 7a 0a bd d1 11 11 bd 02 25 c2 bc
       0.024341336 -0.033808336 -0.03541738 -0.023699287
000260 ec 2a 05 3d c3 a4 6a bc 6f 96 e0 bc e1 fc 62 bb
       0.032511637 -0.014321509 -0.027415482 -0.003463559
000270 0a f0 40 3d 01 2e 9e 3d 04 f5 ca 3d 49 fa 95 3d
       0.04710392 0.07723618 0.09910014 0.07323129
000280 26 91 9c 3b f0 ce 2e 3c 38 56 31 bd b4 1b de bc
       0.004778045 0.010669455 -0.043295115 -0.02711282
000290 48 4f b7 bd c9 51 04 be f5 43 a3 bc 4d e5 a3 3d
       -0.089506686 -0.12921824 -0.019929865 0.0800272
0002a0 4a 96 65 bb 09 03 35 bb 6c 76 16 3d b9 50 c0 3b
       -0.0035032206 -0.0027620217 0.03673403 0.005868998
0002b0 40 42 2c bd 5a 0d 91 bc d8 0b 96 bc 45 03 fa bc
       -0.04205537 -0.017706562 -0.018316194 -0.030519137
0002c0 73 b8 7c bd d9 27 4f bd c5 dd b4 bc 28 29 db bc
       -0.061699342 -0.05057511 -0.022078404 -0.026753023
0002d0 94 a7 b1 bd e2 39 73 bd 0b 0c e3 bc aa a8 95 3b
       -0.08674541 -0.059381373 -0.027715703 0.0045672255
0002e0 79 cb 84 3d 6b 29 a3 3d f4 de c1 3d 34 93 b5 3d
       0.06484122 0.07966884 0.09466353 0.088659674
0002f0 ef a5 87 3d bf 7a 01 3d d7 ad ba bb c3 e1 20 bd
       0.06623446 0.0316112 -0.005696993 -0.039277803
000300 cc 77 2c 3c 66 87 6e bc 2f 43 b9 3c db 44 ac bc
       0.010526609 -0.014558649 0.022615043 -0.021028927
000310 1c 5a 84 3d 0a 15 11 3d 27 57 ec 3d 06 f5 13 bc
       0.064624995 0.035420455 0.115400605 -0.009030586
000320 c3 58 16 bd ab 8b 35 3c a2 a3 c8 bb 5f c4 99 bd
       -0.036705744 0.011080663 -0.006123022 -0.07508158
000330 a1 d5 77 bd 93 02 9c bd d4 e8 ce bd 10 9b 9c bd
       -0.060506467 -0.076176785 -0.10103002 -0.07646763
000340 55 6d a1 bd 96 ae 72 bd 83 33 25 3a 44 1c 19 3d
       -0.078821816 -0.05924853 0.00063019263 0.03738047
000350 e6 a9 91 3d 97 e2 e8 3d ed 3e a1 3d 2c 44 e3 3d
       0.07112484 0.113713436 0.0787333 0.11096987
000360 e1 b1 73 3d 03 ad 81 3c 6a f0 5f bb c1 52 3f bd
       0.05949581 0.015829569 -0.0034170398 -0.04670978
000370 e0 7e 04 bd 40 0c a9 bd fe ce 03 bd 5c 33 21 be
       -0.03234756 -0.082542896 -0.032179825 -0.15742248
000380 66 3d 83 bd bb 91 88 b9 e0 9f cc 3d e0 09 a2 bd
       -0.06408195 -0.0002604852 0.09991431 -0.0791204
000390 3a 03 ac bd f8 b2 2e bc 51 4d ea 3b ee de b4 bd
       -0.08399053 -0.010662787 0.00715033 -0.08831583
0003a0 c7 73 6e bd 44 4e c7 bd b9 c1 fa bd cd 0e b5 bd
       -0.058215883 -0.09731725 -0.12243981 -0.08840714
0003b0 85 58 73 bd b3 19 37 bd 09 10 fd 3b c2 eb a6 3d
       -0.05941059 -0.044702243 0.007722859 0.08150436
0003c0 69 0c e1 3d df 49 ce 3d 37 09 a2 3d a8 e7 9c 3d
       0.10988695 0.100726835 0.07911914 0.076613724
0003d0 76 31 c7 3c 82 72 80 3c 19 04 99 bc 7c 78 c8 b9
       0.024315577 0.015679602 -0.018678712 -0.0003823674
0003e0 64 05 6f bc 5e 48 27 bd ab cd d6 bc 44 ff f4 bc
       -0.014588688 -0.0408405 -0.026221117 -0.029906876
0003f0 e4 71 8c 3c 2a ba c9 bd 81 ba 57 3c 3b 84 69 bc
       0.017144151 -0.09849961 0.013167025 -0.014252718

encoder.0.bias f4 [10]
000000 f0 4b 8a 3e 40 48 c8 3d c4 10 22 bd 86 f1 de bd
       0.2701106 0.097794056 -0.03956677 -0.10885911
000010 f5 ea 64 3b cc 08 1e 3f 5a 6e dd 3e 89 11 82 3f
       0.0034930084 0.6173217 0.43248254 1.0161601
000020 59 11 03 bd 05 bc 78 3f
       -0.031998966 0.97161895

encoder.2.weight f4 [10, 10]
000000 f9 25 94 3d b8 9a 9e 3e 27 67 01 bd 15 d4 3f 3e
       0.07233805 0.30977416 -0.031592514 0.18733247
000010 b0 3e 6b be 79 ec 80 be 2a 94 0d 3e 17 a3 02 3e
       -0.22973132 -0.25180414 0.13826051 0.12757526
000020 2a 81 8c be 2c 4d 9b 3e a6 b5 cb 3e b0 67 ba bd
       -0.27442294 0.30332315 0.39787024 -0.09101808
000030 d3 4f 12 be b1 b6 4b be a8 80 56 3e b8 40 12 3e
       -0.14288263 -0.1989391 0.20947516 0.142825
000040 15 b4 78 3d 6a 14 ee bc bb ef 2a bd df c4 47 3e
       0.060718615 -0.029062469 -0.04173253 0.19508694
000050 f9 ad c6 3d 79 df fd 3c e2 04 64 be 64 4b 03 be
       0.097011514 0.03099035 -0.22267488 -0.12821728
000060 bb 55 a2 3e 06 02 bd 3e 05 02 6c 3e a5 f1 0a 3e
       0.31706032 0.36915606 0.23047645 0.13568743
000070 2e 39 39 3e 9a 55 7d 3e e3 3a bd bd db 69 64 be
       0.18088219 0.24739686 -0.092397474 -0.22306006
000080 d1 8b 10 be 92 be f5 3e 06 6f 97 3e d8 32 81 3e
       -0.14115836 0.47996956 0.29576892 0.25234103
000090 54 65 fb bc c9 82 d6 bd 14 dd 90 3e a7 46 54 3e
       -0.030687965 -0.10474164 0.2829367 0.20730077
0000a0 61 80 e2 be b1 47 d2 3b 0b 56 d9 bd db 13 df bb
       -0.4423857 0.0064172377 -0.106121145 -0.006807787
0000b0 37 f5 97 3d eb 13 0e be f1 c7 21 3e a1 c2 92 be
       0.07419818 -0.13874786 0.15798928 -0.28664115
0000c0 dc 90 e9 bd b1 b3 f9 bd 90 46 b4 bd a0 0a 8f 3e
       -0.11404583 -0.121924765 -0.08802521 0.27937794
0000d0 73 7a 0d be 23 83 ca 3d cc b7 70 be 35 6c c6 3d
       -0.13816242 0.098882936 -0.23507613 0.096886076
0000e0 cf d0 14 be 14 a8 90 3e 62 d9 89 3b 4d 66 71 3c
       -0.14532779 0.28253233 0.0042068223 0.014733863
0000f0 f2 cb 0f be 6b 40 88 3e fe 9c 07 be 8f 44 75 3e
       -0.14042643 0.26611647 -0.13243482 0.23951934
000100 2e 94 43 be e4 1b af 3e 02 50 52 3e 7c 9d ee bd
       -0.19099495 0.34200966 0.20538333 -0.116511315
000110 8d 82 96 3e 61 45 ac be 9d 99 a3 bc 1a fa 7a be
       0.29396477 -0.33646682 -0.01997071 -0.24509469
000120 61 45 67 3e a1 74 39 3e 97 6b 90 bd 4d 6b d2 bd
       0.2258506 0.18110897 -0.07051771 -0.10274372
000130 22 78 1f 3e 01 69 62 3e 0c fc 33 be 06 ee 98 bf
       0.15573171 0.22110368 -0.17576617 -1.1947639
000140 8f 87 08 be a5 ab c3 3d 60 26 59 bd 06 00 74 be
       -0.13332961 0.09554223 -0.053015113 -0.23828134
000150 04 87 8a 3e 4a 50 74 be 03 95 7b be b7 e4 51 be
       0.27056134 -0.23858753 -0.24568562 -0.20497404
000160 49 16 7e be 94 e5 de bd d8 b7 99 3e 40 1d e4 bd
       -0.24813189 -0.10883632 0.30023074 -0.111383915
000170 ef e0 81 3e f5 a1 6e be f1 9f a9 3d 23 2f 8a 3e
       0.25366923 -0.23303969 0.082824595 0.26989087
000180 9d 1e 73 3d 66 49 ca bd 8a d9 4d be c6 87 99 3e
       0.059355367 -0.09877281 -0.20102516 0.299864

encoder.2.bias f4 [10]
000000 b4 41 a3 3c f1 d8 69 3e 6f 18 97 bc 17 1b d8 bd
       0.01992879 0.22836663 -0.018444268 -0.10552042
000010 b0 60 f8 3d ac 08 3a 3e e7 d9 8b 3e f1 63 b6 3d
       0.12127817 0.1816737 0.27314684 0.08905781
000020 0a c4 48 3e 55 b0 62 be
       0.19606033 -0.22137578

encoder.4.weight f4 [10, 10]
000000 c6 63 e0 bd 1a 0c 3c be c5 c1 14 be 01 1d 00 bf
       -0.1095653 -0.18363991 -0.14527042 -0.50044256
000010 16 e5 25 3e 94 72 30 bd c0 21 ed bd bc 0c bb 3e
       0.1620067 -0.04307802 -0.11578703 0.36533153
000020 16 b0 57 3e 4a 29 b4 3e 69 2a b0 be 7c 7d 7f be
       0.21063265 0.3518775 -0.34407356 -0.24950212
000030 7e b1 71 be 93 66 f0 3d b8 1e fd bd b3 1b b8 3e
       -0.23602864 0.117383145 -0.12359375 0.35958633
000040 a5 82 1e 3e 3e 6b 31 3e dc d6 67 3d 79 22 9f 3d
       0.15479524 0.17326066 0.05660139 0.07770247
000050 fa 68 16 3e 15 f6 76 be 2a 4e 25 3e 0b df 82 3f
       0.14688483 -0.2411731 0.16143098 1.0224317
000060 fc d2 36 3e 97 97 11 be 59 b3 68 3e cd 1b ad be
       0.17853922 -0.14217983 0.22724666 -0.33810273
000070 24 87 84 bc 0c c2 f4 3e 68 03 4e be cf b2 d2 3e
       -0.016177721 0.47804296 -0.20118487 0.41152045
000080 7d 83 b0 3d 37 69 81 be 51 a0 2b 3e 2e a1 9a be
       0.086188294 -0.25275585 0.16760375 -0.30201095
000090 60 22 86 3d fd b1 3f 3e 05 42 44 3e ee 35 f4 be
       0.06549525 0.18720241 0.1916581 -0.47697395
0000a0 02 c9 6c 3e fc e0 8e 3d 55 55 91 bb 8b 17 d5 be
       0.23123553 0.06976506 -0.004435221 -0.41619524
0000b0 99 fc a3 3d 2c 24 a0 be 1d a5 b5 be b2 b7 a1 be
       0.080071636 -0.31277597 -0.35477534 -0.3158546
0000c0 a4 25 f2 bd be a4 b2 bd ae 9c 12 3d a1 5f 43 be
       -0.11823586 -0.08722828 0.035793953 -0.19079448
0000d0 65 c1 8a be 45 f6 e8 3d 39 47 01 3e 19 e8 a3 be
       -0.27100673 0.11375097 0.12624826 -0.32013014
0000e0 b8 be 9d 3e 32 c9 fd 3d 20 28 90 3e 9d bc 85 3d
       0.3080957 0.123918906 0.28155613 0.06530116
0000f0 4d f4 7c 3d 9d 64 28 be 79 04 ab 3e da 26 f0 be
       0.06175642 -0.16444631 0.3340185 -0.4690464
000100 e6 cb c6 3d b3 d8 a2 3e d2 17 40 3e 63 4d 1f be
       0.09706859 0.31805953 0.18759087 -0.15556864
000110 83 d7 61 bd f6 f8 b7 be a5 49 b9 3d 5c fe 15 be
       -0.05513717 -0.3593213 0.0904725 -0.14647812
000120 0c 98 a6 be d2 8f 93 3e 3b 59 8a bd 11 db 0c 3e
       -0.32537878 0.28820664 -0.067553006 0.13755442
000130 f7 db 8e be 94 ca 6b be 44 fd 65 bd 2d a9 a0 3d
       -0.27902195 -0.23026496 -0.056149736 0.07844768
000140 80 ab 0b 3f 3e aa 75 be 0c 29 ab be 0a 02 22 be
       0.54558563 -0.23990723 -0.33429754 -0.1582109
000150 a7 68 5e be 61 76 b9 3d b4 ed a9 3e 92 73 50 3b
       -0.21719609 0.09055782 0.33189166 0.0031807167
000160 5e 5b 36 3e d2 d5 c2 3e 04 ab 90 3d 7e 4e e8 bd
       0.17808291 0.38053757 0.07063869 -0.11343096
000170 bf 35 23 be eb 9c ea bd 17 d0 20 3d 51 19 b2 3d
       -0.15938471 -0.11455711 0.03926095 0.08696235
000180 a0 e4 80 be 39 4a 0a 3f b2 66 d3 3c 3c 02 47 bd
       -0.25174427 0.54019505 0.025805805 -0.048586115

encoder.4.bias f4 [10]
000000 d8 72 75 3d ed 0e ac bd 48 43 73 3e 84 b0 5e be
       0.059923977 -0.08401284 0.23756135 -0.21747023
000010 94 bf c5 be 01 e3 54 bf 34 a9 40 3e b6 62 cb be
       -0.38622725 -0.8315888 0.18814546 -0.39723748
000020 c4 a5 81 be e1 20 d3 ba
       -0.25321782 -0.0016107821

decoder.0.weight f4 [10, 10]
000000 f2 2e 7f be 80 1b 73 3e 5f 74 a4 bd e7 40 1a 3d
       -0.24920252 0.23740959 -0.080300085 0.037659552
000010 dd 68 65 3e 38 6e 80 3e 79 c8 4a be 89 42 36 3d
       0.22403283 0.2508409 -0.19803037 0.044497047
000020 32 3b 73 be 77 d9 d4 3d 8c 9c 69 3e 27 b1 88 3e
       -0.2375305 0.103930406 0.22813624 0.26697657
000030 a7 f9 10 3c 4f 9e db be df 68 ab be 75 a4 af be
       0.008848584 -0.42894217 -0.33478448 -0.34305158
000040 f3 b7 dd 3d a2 bf c1 be d1 b1 49 3e 67 38 05 3e
       0.10826101 -0.37841517 0.19696738 0.13009797
000050 0f c6 05 be 1f 2d cc 3d 79 6b 82 be 95 88 57 3d
       -0.13063835 0.09969544 -0.2547262 0.05262049
000060 07 e0 96 3c cd 95 34 bd b9 fc 4f be aa 3c f2 3b
       0.018417371 -0.044088174 -0.2031125 0.0073924856
000070 18 b5 20 be ca 13 4a 3e 6b 72 c6 be c9 c9 da be
       -0.15694082 0.19734111 -0.3875917 -0.42732075
000080 fb be b0 3e f6 cf 89 3d 38 e9 6a 3e a4 7d e2 be
       0.34520707 0.067291185 0.22940528 -0.4423648
000090 81 5e bb 3e 9c b5 90 bd 2a c2 ef bd a4 6a a6 be
       0.36595538 -0.07065889 -0.11706956 -0.32503235
0000a0 63 85 cb 3c 49 0b f9 3d 52 be 14 3d c4 80 5c be
       0.024843877 0.121603556 0.036314316 -0.21533495
0000b0 4e 75 0a be 17 42 cb be d7 1b 29 bc 18 1f 65 3d
       -0.1352131 -0.3969886 -0.010321579 0.055937856
0000c0 7a b6 9f be 42 29 1f bd cd 79 95 be 4e 74 53 be
       -0.31193906 -0.038857706 -0.2919449 -0.20649835
0000d0 6c d5 8b be 97 64 89 bc 30 5e 91 3e 92 69 80 3e
       -0.27311265 -0.016771598 0.28392172 0.25080544
0000e0 3b d7 6c be 5a f0 6b 3e fd 62 e6 3d ba 21 a0 be
       -0.23128979 0.23040906 0.11249349 -0.3127573
0000f0 2b 87 2a be 79 5b a4 bd 13 37 9d 3e e6 a4 0f 3f
       -0.16653125 -0.080252595 0.3070608 0.5611099
000100 51 6b a6 be 47 f1 06 3c d3 fb 01 bd 53 98 d5 be
       -0.3250375 0.008236236 -0.0317343 -0.41717777
000110 24 a4 f5 bd 24 28 a2 bd f8 cf b6 3d 83 76 2a 3e
       -0.11994198 -0.079178125 0.08926386 0.16646771
000120 b8 85 20 be ad 4e 2a be 8f af 8e 3e 28 bd 13 3e
       -0.1567601 -0.16631575 0.27868316 0.14427626
000130 da 5c b1 3c 02 14 10 be ee ad 5f bd 15 d9 fd 3d
       0.02165072 -0.14070132 -0.05460923 0.12394921
000140 89 8d 2b be 0a 65 1b be 40 5f 95 3e fe 71 cd be
       -0.1675321 -0.15175262 0.29174232 -0.40126032
000150 66 52 72 3c 9f 66 d6 3d 65 86 17 3d 93 1e bc 3e
       0.014790153 0.10468792 0.036993403 0.36742076
000160 12 e9 42 3e fa 08 d6 3d 45 43 43 bd 53 93 12 3e
       0.19034222 0.10450931 -0.047671575 0.14314012
000170 86 50 0a 3e 72 bb ea bd ca 51 a9 3e a0 97 0a 3e
       0.1350728 -0.114615336 0.33070213 0.13534403
000180 44 48 89 bd 63 0e dd bb 82 15 84 bb c6 4e ae 3e
       -0.06703237 -0.0067461 -0.0040308842 0.34044474

decoder.0.bias f4 [10]
000000 1c cf e8 3d d6 bb de 3e 54 0b ea 3d ca a3 4d 3e
       0.11367628 0.43502682 0.11427942 0.20082012
000010 c5 1a 82 3e 1f ef 2d bd 2e c2 1f 3e 38 a9 37 3d
       0.2541105 -0.04246437 0.15601417 0.044839114
000020 2e 00 cd bd e1 51 96 be
       -0.100098 -0.29359344

decoder.2.weight f4 [10, 10]
000000 a5 78 ff 3d 06 a4 b8 3d 61 ec b3 3d c7 01 92 bd
       0.12474183 0.0901566 0.0878532 -0.07129245
000010 3e 88 aa bc 17 42 a7 bd 5f 8c 5f 3e 43 82 18 3e
       -0.020816918 -0.081669025 0.21830891 0.14893441
000020 fe 8b 00 be 3a 15 da bd bb 53 49 be 96 01 88 be
       -0.12553403 -0.1064858 -0.19660847 -0.2656371
000030 c5 e7 fa bd de c9 81 be ea c2 04 3e 95 3c b2 3d
       -0.12251238 -0.25349325 0.12964979 0.08702961
000040 66 8f 2f 3c 20 0b 1c 3e 0f 17 fd bd c6 41 a7 bd
       0.010715341 0.15238619 -0.12357914 -0.08166842
000050 44 3c a5 bd 02 40 ad 3e 23 ca 85 be c9 f8 28 be
       -0.080681354 0.33837897 -0.2613078 -0.16501154
000060 05 3e 11 3f 1d e8 62 3d 63 72 39 be d5 14 48 bc
       0.5673526 0.05539714 -0.18110041 -0.012211998
000070 4b fc 97 3d 85 e5 46 3e fc ad 70 3e 81 6d 6f be
       0.07421168 0.19423492 0.2350387 -0.23381616
000080 2a 8b 48 be 7e 49 2f 3e 21 63 3a 3e 67 ab 82 3d
       -0.19584337 0.17117879 0.18201877 0.06380349
000090 cb 54 00 3e bd f9 1f 3e 61 8f 1e 3e 9e c0 4a be
       0.12532346 0.15622611 0.15484382 -0.1980004
0000a0 11 bd 0b 3d a5 32 81 3d d4 76 62 3d 25 6a 2a be
       0.034115855 0.06308488 0.055289105 -0.16642053
0000b0 a4 54 bb be 34 8c ca bd 52 0f 7e 3d 37 cc 9f be
       -0.36588013 -0.09890023 0.06202633 -0.3121049
0000c0 85 fa f1 3e 02 76 00 be 95 7a 45 be 6a e1 69 3e
       0.47261444 -0.12545016 -0.19285043 0.22839895
0000d0 88 f7 83 be 54 1c 9c 3e 1f 1f 8f be dd 1a 8e be
       -0.2577479 0.30490363 -0.2795343 -0.2775487
0000e0 f2 97 9c be 0e df 90 3d c3 6d 49 bc 25 1d 6d be
       -0.30584675 0.07073794 -0.012294236 -0.23155649
0000f0 cd 92 09 be 61 d4 79 3e 73 43 cc bd 68 b3 cb bd
       -0.13434906 0.24397422 -0.099738024 -0.099463284
000100 f7 1e 06 be 26 8e 94 3e 38 b2 13 3e 93 7a 82 be
       -0.1309775 0.290147 0.14423454 -0.25484142
000110 c6 14 a3 bd 9f ac 42 be 9a a0 fe bd 90 8d 8b 3e
       -0.079629466 -0.19011162 -0.12432976 0.2725644
000120 41 3c ed bd 3f b4 ca be 62 7b dd bd 4e 2e 32 be
       -0.11583758 -0.39590642 -0.10814549 -0.17400476
000130 3c d1 65 3e bf 1e 06 bc c7 aa 07 be 7a 74 bf bd
       0.22443098 -0.008186041 -0.1324874 -0.09348388
000140 70 b1 42 3e bc a6 81 bd eb 6f 86 3d d5 6e a0 be
       0.19013 -0.0633063 0.065643154 -0.31334558
000150 ec ea 08 bd 92 43 2a bd 8c 80 16 3e 92 b9 5f be
       -0.033427164 -0.041568346 0.14697474 -0.21848133
000160 66 bb 80 bd 91 01 84 3e 3e 7d da bd 75 32 96 bd
       -0.062857434 0.25782445 -0.10668419 -0.07333843
000170 8e bb 20 3d 41 fd 0b 3d 7a 17 a7 3e 21 e5 9b 3c
       0.039241366 0.03417707 0.326351 0.019030156
000180 d7 8c 07 bf 0c 3b 40 be ee 7b c3 3e 02 8d 73 be
       -0.5294928 -0.18772525 0.38180488 -0.23784259

decoder.2.bias f4 [10]
000000 90 8f f0 38 7f d1 ba bc 32 f7 ae bd 65 d6 13 3c
       0.000114708324 -0.022804974 -0.085432425 0.009023284
000010 fa f4 fc 3e a1 01 51 3e cb 63 e3 bb 59 9a d3 bd
       0.49405652 0.20410778 -0.0069393865 -0.10332174
000020 09 aa 7f be 84 40 a7 3e
       -0.24967207 0.3266641

decoder.4.weight f4 [784, 10]
000000 e6 40 2e bc ca cd 67 3e 8f 9f 9a ba 92 8a 08 3b
       -0.01063559 0.22637096 -0.001179682 0.0020834547
000010 1b 60 f2 ba 03 94 06 bb 33 50 25 3c 92 26 92 b9
       -0.0018491776 -0.0020535 0.010089922 -0.00027876027
000020 cd 01 78 be 5d 14 9f 3a 76 c1 12 3d f5 99 30 be
       -0.24219437 0.0012136806 0.03582903 -0.1724623
000030 2e 98 85 3b 02 b5 ec bb 1b 1d ca 3b d2 82 e8 3b
       0.004076979 -0.0072237263 0.0061680204 0.007095673
000040 00 d3 09 bd 22 9d 93 3a 4e f1 bb bd 76 a0 7a bb
       -0.03364849 0.0011262039 -0.091768846 -0.0038242615
000050 5a ff a0 3c 8a 7b b0 3c 70 87 0c 3b 76 fc 88 bb
       0.019653011 0.021543283 0.0021443032 -0.0041804863
000060 a3 54 61 3b 26 6c 80 3b 56 71 99 bc b5 7f 07 3a
       0.0034382723 0.0039191423 -0.0187308 0.0005168871
000070 ea 91 62 be 31 17 05 bb 2f ea 37 bd 8c 4a 54 bd
       -0.22125974 -0.0020308013 -0.04490107 -0.051828906
000080 d7 cc a3 bb 84 ff 13 3c bb 7b fb bb c8 9a 11 bc
       -0.004998784 0.009033088 -0.007674662 -0.008887
000090 c0 7c 2c 3d 12 e0 b4 ba 26 49 f8 bb 08 42 9e 3b
       0.04211116 -0.0013799688 -0.0075770793 0.004829649
0000a0 b8 d3 34 be 78 7c 00 bd 0d a2 96 bc 65 52 0e 3d
       -0.1765889 -0.031368703 -0.018387819 0.034746546
0000b0 75 4b f4 bc a1 8a 0d bd d4 de 28 3e 3c 6b 73 bb
       -0.029821137 -0.034556035 0.16491252 -0.0037142774
0000c0 54 9c 7a 3e fb d9 95 3c 27 53 b2 bb a9 4d 12 bd
       0.24473697 0.018292418 -0.0054420414 -0.035718594
0000d0 2b e5 0f ba 36 12 93 3a 63 df 6f ba 4f 69 88 ba
       -0.0005489166 0.0011220637 -0.00091504137 -0.0010407361
0000e0 a2 a6 ad 3b 0b 47 13 b9 85 12 26 3e 77 fd 12 3a
       0.005299405 -0.00014045478 0.16218002 0.0005607227
0000f0 bd 28 0b be 34 ed da 3c d0 f9 6d bc 83 16 d7 3c
       -0.13589759 0.026724435 -0.014524892 0.026255852
000100 fa 8f be bc c2 3f dc bc 4f 88 01 3e a6 7d 36 bb
       -0.023262013 -0.02688587 0.12649654 -0.0027845888
000110 ac 41 96 3e 28 90 63 3c 18 95 4e bb 5b 18 15 3e
       0.2934698 0.01388935 -0.0031521972 0.14560072
000120 e4 a6 a7 b9 38 3d 1e 3a 87 90 08 ba 82 79 1f ba
       -0.00031977065 0.0006036344 -0.00052095245 -0.0006083475
000130 72 cc 45 3b 74 10 b1 b8 6b 2c 0a 3e 95 7d c8 39
       0.0030181673 -8.443082e-05 0.13493507 0.0003824054
000140 d2 a0 40 be c6 cd 98 3e cd 64 9f bc 98 52 18 3d
       -0.18811348 0.29844493 -0.019457245 0.037188143
000150 06 bc 01 bd b8 85 16 bd f6 01 34 3e 58 39 83 bb
       -0.031673454 -0.036748618 0.17578873 -0.0040046386
000160 e7 44 8a be de 14 a0 3c df cc 54 3d d8 68 c0 3d
       -0.27005693 0.0195412 0.051953193 0.09394997
000170 e3 be b6 3b f7 9c 27 bc b3 af 10 3c ff 28 27 3c
       0.0055769547 -0.010230294 0.008830952 0.010202645
000180 f9 5f 47 bd f0 17 6c 3a 1d 86 fa 3d a6 f6 b4 bb
       -0.04867551 0.00090062525 0.12232611 -0.005522567
000190 65 32 8b 3d 43 71 89 be 5f 73 ef 3b c2 ae 5c bc
       0.06796721 -0.26844224 0.0073074545 -0.0134694
0001a0 34 17 3d 3c d5 f2 59 3c e5 81 82 bd 52 2b ac 3a
       0.011541177 0.013302525 -0.06372432 0.0013135469
0001b0 38 54 8e bd ec eb ed bb 5a f5 84 3c ee 77 ae 3d
       -0.06949657 -0.00726079 0.016230274 0.085189685
0001c0 65 5c f4 3a c0 5b 59 bb 39 e9 42 3b a6 d4 55 3b
       0.0018643258 -0.003316626 0.0029741062 0.003262797
0001d0 0e 94 7a bc ce 36 03 3a fa 7a 5f bd ea 75 e2 ba
       -0.015294088 0.000500542 -0.05456064 -0.0017277573
0001e0 83 3c 98 bd 65 79 4b be e4 d1 01 bc e0 70 6e 3c
       -0.07433417 -0.19870527 -0.007923577 0.014553279
0001f0 bd 7d 4f bc db 1c 6f bc a6 1a 8e 3d 8c 08 b7 ba
       -0.012664256 -0.014594282 0.069386765 -0.0013964339
000200 fb cf d8 bc 7f 5b fa 3b 0d 8f 72 bd d8 d6 4a be
       -0.02646636 0.0076403017 -0.059218455 -0.19808519
000210 87 97 d0 bb 49 94 3b 3c 18 b4 26 bc 29 5f 40 bc
       -0.0063657197 0.011448928 -0.010174774 -0.011741438
000220 d2 d1 61 3d 28 63 94 ba 39 b0 7a 3e 4e d2 c7 3b
       0.05513174 -0.0011321055 0.24481286 0.0060980683
000230 a2 7c 59 bd a5 8e ec bd a1 c9 b8 bb 8c 2d 2a 3c
       -0.053097375 -0.11550645 -0.0056392704 0.010386836
000240 1d 07 14 bc a6 4e 2b bc 14 02 4b 3d 8f e3 84 ba
       -0.009034899 -0.010455763 0.04956253 -0.0010138619
000250 c8 83 55 3e f4 c3 b4 3b 05 66 ad 3d 45 d0 90 be
       0.20851052 0.0055165235 0.08466724 -0.28283897
000260 14 1c 13 3c 4a 1e 88 bc e9 0d 6c 3c b1 00 88 3c
       0.008978862 -0.016616005 0.014407613 0.016601892
000270 3e e2 a1 bd 2d be d5 3a c0 99 00 3e a4 b8 0d bc
       -0.079044804 0.0016307287 0.12558651 -0.008649979
000280 01 fd 94 3b ac c3 69 be c7 b5 04 3a f3 ab 68 ba
       0.004546762 -0.22828549 0.00050624873 -0.000887572
000290 f6 91 55 3a 7b 38 62 3a 9a 4d 8c bb 96 4e 1d 39
       0.0008147055 0.0008629632 -0.0042817118 0.00015001962
0002a0 e0 e2 3b 3b bd c0 06 ba 6d 39 8d 3c 3f 2d b2 bd
       0.0028669164 -0.00051404146 0.017239297 -0.08700036
0002b0 8f 65 01 3b 82 a0 68 bb 2f 33 4f 3b d9 97 63 3b
       0.0019744372 -0.003549606 0.00316162 0.003472796
0002c0 a0 12 85 bc d8 c3 0c 3a ab 30 a1 be 60 b4 f0 ba
       -0.016244233 0.0005369759 -0.31482443 -0.0018364303
0002d0 4b 0e 0f 3d b5 ea fc 3d 19 07 80 3b d8 11 e7 bb
       0.03492574 0.12349454 0.003907096 -0.0070516877
0002e0 ff 01 c4 3b 6b 3e e2 3b c0 42 06 bd 79 4e 8d 3a
       0.0059816833 0.0069044135 -0.0327785 0.0010780833
0002f0 f9 0a 88 3e 20 0f 75 bb 72 51 49 bb 3d c3 07 be
       0.2657087 -0.0037393048 -0.0030718711 -0.13258071
000300 31 e4 a2 b9 5f 77 19 3a d4 1b 06 ba 7f bc 1a ba
       -0.00031069064 0.00058542745 -0.0005115841 -0.0005902722
000310 ad 4c 40 3b 51 bd b4 b8 63 77 98 3e 5a 74 c1 39
       0.0029342577 -8.618332e-05 0.29778585 0.00036898517
000320 61 59 e8 ba c0 4e 88 be d2 c8 4e b9 1b d3 b1 39
       -0.0017726832 -0.2662258 -0.00019720502 0.00033917357
000330 f5 14 a6 b9 b8 76 b2 b9 8e 0d da 3a c8 85 a6 b8
       -0.00031677602 -0.00034039258 0.001663612 -7.9404155e-05
000340 15 53 9e 3e 0c 82 6d 39 30 ad d7 bd c9 8f 81 bd
       0.30922762 0.00022650528 -0.1053108 -0.06326253
000350 5a c1 37 bc 1f 39 a8 3c 5c 60 93 bc 72 19 aa bc
       -0.011215532 0.02053505 -0.017990284 -0.020764086
000360 6f 00 c9 3d 9a 80 07 bb c7 b0 7c bd ad 29 2f 3c
       0.09814536 -0.0020676018 -0.061692026 0.010691089
000370 d7 da 38 bd 9c 93 43 be b2 6b 9f bb 6e 68 13 3c
       -0.045130577 -0.19099277 -0.004865133 0.008997066
000380 70 00 fb bb 1a 0f 11 bc 83 7f 2d 3d a4 93 64 ba
       -0.0076599643 -0.008853698 0.042357933 -0.000871951
000390 fb 40 ad 3d 80 3a 9e 3b 3a 83 ae bc 6c 38 4d 3d
       0.0845966 0.004828751 -0.021302808 0.050102636
0003a0 72 68 1c bb 6e d9 93 3b 38 83 79 bb 0b a0 8c bb
       -0.0023865965 0.0045120036 -0.0038072597 -0.0042915395
0003b0 03 b8 a5 3c 54 82 11 ba 16 3c 7f 3d 44 68 13 3b
       0.020229345 -0.00055507314 0.06231316 0.0022492567
0003c0 13 15 b7 38 b0 8a 1e be a9 09 28 37 00 4f 8c b7
       8.7300454e-05 -0.15482593 1.00158295e-05 -1.6726088e-05
0003d0 8c 24 85 37 99 33 8c 37 57 0c aa b8 14 09 ac 36
       1.5871854e-05 1.6713328e-05 -8.10853e-05 5.1270563e-06
0003e0 34 78 81 be 39 d5 4e b7 4a ab 2e 3e c4 52 01 be
       -0.2528702 -1.2328202e-05 0.17057529 -0.12629229
0003f0 bd 80 92 3c b4 cc 08 bd 08 d1 ec 3c 4a 19 09 3d
       0.017883653 -0.033398345 0.028908268 0.033471383

decoder.4.bias f4 [784]
000000 80 d5 a0 3a cb ef 84 bb a4 de 10 bb 0f c0 a5 3b
       0.0012270659 -0.004056906 -0.002210536 0.0050582956
000010 ec 3d a1 3c 27 1a 2a 3a 36 4b 73 3c b0 a9 c9 39
       0.019682847 0.00064888824 0.014849475 0.00038464135
000020 f4 83 ac 3c 5e 1f bd bb d5 00 fa bb 3c 21 e7 ba
       0.021059014 -0.0057715615 -0.0076294937 -0.0017633806
000030 3b 77 06 3c 71 2d d3 3b 8e f3 c0 3b 87 d1 19 bc
       0.008207138 0.006444626 0.005888409 -0.009388334
000040 27 6d 06 ba d3 0a f6 ba 43 68 80 bb 6b 8b c2 39
       -0.00051279593 -0.0018771536 -0.003918679 0.00037106438
000050 a9 7c 52 39 50 70 3e 3c dd b0 a5 3b 59 0d 1d 3b
       0.000200736 0.011623457 0.005056484 0.0023964255
000060 f3 07 1f b7 ac 00 9b bc 0d 39 8d bc 8a 49 a8 ba
       -9.478989e-06 -0.018921219 -0.017239118 -0.0012839299
000070 59 f4 66 ba 77 2b 01 3b 47 15 1c bc 94 f2 87 3b
       -0.00088102143 0.0019709745 -0.009526557 0.0041487906
000080 3d 10 02 bb 67 b1 cf bc 78 f3 96 bb 2e f7 08 3b
       -0.0019846105 -0.025353147 -0.0046066605 0.0020899284
000090 b4 34 16 bb 89 99 4a bc 7b e4 ab 3b d4 e8 74 3c
       -0.0022919597 -0.012365707 0.005245743 0.014948089
0000a0 72 6f b5 3b 36 56 61 bc 8c 1a 5a bc b7 f6 6c bb
       0.005536967 -0.013753464 -0.013311993 -0.0036157796
0000b0 22 ea e3 3b 9e 0b 8f 38 11 24 0e ba cf cc a3 3c
       0.006955401 6.820935e-05 -0.00054222444 0.019995121
0000c0 60 f6 4b 3b d0 76 c5 ba 7e eb da 39 f7 b9 ab ba
       0.0031122193 -0.0015065316 0.00041755656 -0.0013101686
0000d0 fa 35 71 3a d1 6d da 3b f5 d1 5c bc 71 79 9f bb
       0.00092014635 0.006665923 -0.013477792 -0.004866772
0000e0 2d 25 08 bb c6 72 58 3b d0 43 c9 bb 40 32 03 b7
       -0.0020774112 0.0033027395 -0.006142117 -7.819908e-06
0000f0 c5 c3 12 bc 44 6e 2b 3c f0 da 8b bc 6e 47 cd 3c
       -0.008957808 0.010463301 -0.017072171 0.025058474
000100 37 b6 86 3c 83 00 4d 3b 5c f2 37 3c 7b 52 a6 3c
       0.016444309 0.0031280823 0.011227217 0.020303002
000110 9b a0 80 3c bd 3c 9b 3c 16 9d b2 3c 03 59 5f 3b
       0.015701583 0.01894986 0.02180342 0.0034080155
000120 a3 37 d6 bb a8 1b 03 3c 93 df a5 3c 4f 69 e9 3b
       -0.006537394 0.008002199 0.02024821 0.0071231495
000130 fe d5 12 3c fc 68 40 3b 0c ad 53 ba fb ea 23 bc
       0.0089621525 0.002935945 -0.0008074797 -0.010004754
000140 3d 29 f5 3b 97 80 65 ba d7 60 3e bc da 68 1a bb
       0.0074817226 -0.0008754818 -0.011619768 -0.0023561032
000150 e7 fc 82 3a 4a 05 a5 bc 12 dc 3d bc 1d e5 37 3c
       0.0009993584 -0.020144124 -0.011588113 0.011224058
000160 fd d8 39 bb b7 8d 81 bb a9 a1 30 bb 2d 2e 80 3b
       -0.0028358095 -0.0039536613 -0.0026951826 0.0039117546
000170 90 6c a8 ba db 2e af 3c b9 dd 35 bc 2a 84 cf 3c
       -0.0012849737 0.021384647 -0.011100226 0.025331575
000180 12 e1 ad bc b2 61 0e bb 25 50 28 bc 6b 4c 32 bc
       -0.021225486 -0.0021725711 -0.010273014 -0.010882477
000190 68 74 cd ba 86 42 f7 3b 5f dd 4e 3c ec ea 27 3c
       -0.001567495 0.007545772 0.012626021 0.010248881
0001a0 57 1b 4f ba 7f e7 5d bc 6e dd 2c bc b8 09 5d bc
       -0.00079004973 -0.0135439625 -0.01055084 -0.013491087
0001b0 71 11 a9 3c 21 71 01 bc 0a 9f 7c bc ce 72 35 ba
       0.0206382 -0.007900507 -0.015418777 -0.0006921709
0001c0 b2 41 83 3c a6 9c 4a 3c 2a d4 9b 3a aa c2 3e 3b
       0.016022537 0.012366449 0.0011888791 0.0029107728
0001d0 0c bf 54 3b a1 b2 de 3b 9b 4d 4e 3c df ff 81 bc
       0.0032462506 0.0067961966 0.012591745 -0.01586908
0001e0 f4 5a 85 3c 9a 5f cd 3c 2d 75 b7 3c df e7 67 3d
       0.016278721 0.02507 0.022394741 0.056617614
0001f0 b7 fc 83 3d 5f 76 d3 3d 43 e7 a2 3d ca 03 b4 3c
       0.06444686 0.10325312 0.07954266 0.021974463
000200 ff af ad bc 79 12 02 bd e0 a6 7b bd 50 82 84 bd
       -0.021202086 -0.0317559 -0.06143844 -0.06470168
000210 30 9b 5e bd 24 a2 a0 bc 39 5b b8 bb 28 d8 b4 3b
       -0.054347217 -0.019608565 -0.005626109 0.005518932
000220 26 a6 ae bc 6e ad 88 3c 2a 26 bd 3b c5 30 a2 bb
       -0.02131946 0.01668426 0.005772372 -0.0049496614
000230 36 9e 29 3b fe 4d 18 3b 39 56 9f bb eb ad 16 bc
       0.0025881655 0.0023239846 -0.0048625735 -0.009196739
000240 3d 5b 42 3c d9 6f c0 3b 83 0a a0 3b 9b cb ce 3c
       0.011862573 0.0058727083 0.0048840656 0.025243571
000250 c5 40 14 3d 19 bb 45 3d 9b 31 c9 3d db 09 bf 3d
       0.03619458 0.048274133 0.098239146 0.09328052
000260 b3 fd 0d 3e 31 f2 30 3e 86 c2 31 3e dc 2d f4 3d
       0.1386631 0.17279889 0.17359361 0.119228095
000270 fe 33 79 3c 0d 07 93 bd 69 da 10 be 91 18 05 be
       0.01521015 -0.07179079 -0.14145817 -0.12997653
000280 03 d9 93 bd d5 35 17 bd 12 89 9c bc 76 15 19 3b
       -0.07219126 -0.036916573 -0.019108329 0.002335874
000290 d0 6a 48 3c 12 a4 b1 3c 26 bd 92 bb a3 76 22 bc
       0.012232497 0.02168468 -0.0044781147 -0.0099159805
0002a0 ae 23 c9 ba ac 72 0a bc e1 a1 15 ba 44 e4 1a 3c
       -0.0015345716 -0.0084501915 -0.0005708021 0.009453837
0002b0 72 44 17 bc 28 b6 df 3c 46 b8 66 3d be a6 89 3d
       -0.009232627 0.027308539 0.05632808 0.06721257
0002c0 42 e1 e0 3d 50 c8 d8 3d ad e8 09 3e 9e 16 e8 3d
       0.109804645 0.105850816 0.13467665 0.11332439
0002d0 ce d0 23 3e 12 70 52 3e 7c 16 5b 3e a7 e6 4c 3e
       0.15997621 0.20550564 0.21395296 0.20009862
0002e0 5b ed a8 3d 3c db 46 bd b7 d8 36 be b0 4f 59 be
       0.08248397 -0.048548922 -0.17856108 -0.21221805
0002f0 bd f0 4b be 9f fc f4 bd 7b a5 63 bd 33 7c 0c 3c
       -0.19916053 -0.11962246 -0.055577736 0.008574533
000300 3f 01 58 ba 3b cd 25 3c 17 1f 71 ba 99 90 4f bb
       -0.0008239932 0.010119732 -0.0009198053 -0.003167188
000310 1a 57 7f bc bc 2b 7e 3c 21 29 0f 3a 34 ed bd bb
       -0.0155847315 0.015513357 0.0005461146 -0.005796099
000320 2f d5 f2 3c 36 e6 f4 3c ed 71 e9 3c 27 9f 83 3d
       0.02964267 0.02989493 0.028496707 0.0642684
000330 3d fc b2 3d c4 b3 b0 3d b8 18 8e 3d 01 3e 6f 3c
       0.08739517 0.086280376 0.069383085 0.014602185
000340 41 5d 1a 3d d6 4f 10 3e 3e 9e 69 3e 10 93 5c 3e
       0.03768659 0.14092955 0.22814271 0.21540475
000350 46 c3 ec 3d fd 14 41 bd b0 b9 41 be 7a d7 aa be
       0.11560683 -0.047139157 -0.1891849 -0.3336752
000360 50 c0 a1 be 4d c7 61 be 6d 15 db bd c1 44 d6 bc
       -0.31592035 -0.22048683 -0.10697446 -0.026155831
000370 75 15 32 bc 2f 1b eb 3b 1e 01 6c bc 59 fe 4f b9
       -0.010869374 0.0071748714 -0.014404563 -0.0001983581
000380 38 fd a9 3c c9 83 ff 39 48 a1 c7 b8 85 ee 98 3c
       0.020750627 0.00048735578 -9.5191004e-05 0.018668422
000390 49 63 5c bb e9 7f 22 3d 79 0d 36 3d 15 06 56 3d
       -0.0033628515 0.039672766 0.044446442 0.052251894
0003a0 d4 57 41 3d ef a7 7c bc b2 57 5b bd 76 26 4f bd
       0.0472029 -0.015420898 -0.05355043 -0.05057379
0003b0 d4 9c 89 bd cf 95 8e 3d 07 68 51 3e 6c db 8e 3e
       -0.06719366 0.069621675 0.2044984 0.2790178
0003c0 31 8b 54 3e c5 02 78 3d 16 14 37 be 30 63 c1 be
       0.20756222 0.060549516 -0.17878756 -0.37770987
0003d0 53 d9 d5 be 79 98 9d be ce 7a 1a be 91 ff b1 bc
       -0.41767368 -0.3078039 -0.15085909 -0.021728309
0003e0 6c cf 5d bc 81 bb 4b ba 03 a4 93 3c 17 d1 6e 3b
       -0.013538223 -0.00077717757 0.018022543 0.0036440545
0003f0 7e 0e 23 ba 70 93 1a ba be 2c e8 3b 18 64 0b 3c
       -0.0006220116 -0.00058966037 0.007085412 0.008507751

exp_avg f4 [10, 784]
000000 00 00 00 00 00 00 00 00 00 00 00 00 00 00 00 00
       0.0 0.0 0.0 0.0
000010 00 00 00 00 00 00 00 00 00 00 00 00 00 00 00 00
       0.0 0.0 0.0 0.0
000020 00 00 00 00 00 00 00 00 00 00 00 00 00 00 00 00
       0.0 0.0 0.0 0.0
000030 a4 4c 6c 24 65 95 9f 26 65 95 9f 26 26 c7 54 24
       5.123926e-17 1.1073335e-15 1.1073335e-15 4.6138857e-17
000040 00 00 00 00 00 00 00 00 00 00 00 00 00 00 00 00
       0.0 0.0 0.0 0.0
000050 00 00 00 00 00 00 00 00 00 00 00 00 00 00 00 00
       0.0 0.0 0.0 0.0
000060 00 00 00 00 00 00 00 00 00 00 00 00 00 00 00 00
       0.0 0.0 0.0 0.0
000070 00 00 00 00 00 00 00 00 00 00 00 00 00 00 00 00
       0.0 0.0 0.0 0.0
000080 04 00 00 00 04 00 00 00 04 00 00 00 39 78 08 ab
       6e-45 6e-45 6e-45 -4.848375e-13
000090 1d 89 ae ac 00 ce 14 2d 69 71 e3 2e 6c 33 0a 2f
       -4.9606e-12 8.458567e-12 1.03429106e-10 1.2569296e-10
0000a0 64 d4 00 2e 93 0f 65 26 d5 a0 bb 26 e2 77 0e 2d
       2.929247e-11 7.947144e-16 1.3019325e-15 8.098385e-12
0000b0 30 6b 84 2d ec cd e0 2a 84 ea 54 28 f2 e7 56 27
       1.5054263e-11 3.993328e-13 1.18192165e-14 2.9824204e-15
0000c0 08 21 4c 22 e3 9d 03 24 5c 9b b5 23 04 00 00 00
       2.7664642e-18 2.8539832e-17 1.9689857e-17 6e-45
0000d0 00 00 00 00 00 00 00 00 00 00 00 00 00 00 00 00
       0.0 0.0 0.0 0.0
0000e0 00 00 00 00 00 00 00 00 04 00 00 00 04 00 00 80
       0.0 0.0 6e-45 -6e-45
0000f0 8b e4 9b 04 6d 19 a1 85 50 78 13 23 50 5a 06 31
       3.665021e-36 -1.5149707e-35 7.994363e-18 1.9550903e-09
000100 f9 fb aa 32 4f ba d4 32 32 f6 19 33 3f aa 9d 33
       1.9905189e-08 2.4764772e-08 3.5847002e-08 7.34185e-08
000110 a7 34 58 32 49 b2 3f 32 56 5d 64 32 65 b4 a4 b3
       1.25848265e-08 1.1158201e-08 1.3292569e-08 -7.669659e-08
000120 f9 73 a2 b4 60 3e 82 b5 8f eb 5f b5 0d 21 b2 b4
       -3.0259233e-07 -9.703908e-07 -8.3416757e-07 -3.317913e-07
000130 37 50 29 b4 02 db 6c 32 7c bd 72 b1 96 52 4f af
       -1.5768534e-07 1.3786805e-08 -3.5323344e-09 -1.8855881e-10
000140 8e de a0 aa b1 61 9b 24 00 00 00 00 00 00 00 00
       -2.8576138e-13 6.738603e-17 0.0 0.0
000150 00 00 00 00 00 00 00 00 b3 ae 4d 26 06 1e 7d a6
       0.0 0.0 7.1360424e-16 -8.7817697e-16
000160 cb c4 45 ad 34 72 05 af 31 8b 0d b2 b6 87 38 b2
       -1.124185e-11 -1.2136853e-10 -8.238929e-09 -1.0741067e-08
000170 77 e9 80 32 fe f5 09 33 44 ab 7e 33 66 c2 7e b4
       1.5007329e-08 3.2121527e-08 5.929475e-08 -2.3726315e-07
000180 9e 2b 1e b5 e2 e5 5c b5 1e c3 44 b5 ba 5d a5 b5
       -5.892306e-07 -8.229091e-07 -7.329962e-07 -1.2320736e-06
000190 7f 39 cb b5 06 5b 91 b5 ca 6d a3 b4 61 20 16 b4
       -1.5141412e-06 -1.0829833e-06 -3.0440998e-07 -1.3981618e-07
0001a0 65 31 4f b4 cb 4d ed 32 39 d1 82 31 2b 18 08 b1
       -1.9296347e-07 2.7625807e-08 3.807284e-09 -1.9804343e-09
0001b0 d5 b6 f1 b2 38 a2 b9 b2 f9 ce d0 a3 00 00 00 00
       -2.8139235e-08 -2.1610603e-08 -2.2639062e-17 0.0
0001c0 00 00 00 00 b3 ed 0b 9d 10 b7 21 2e 78 3e a5 2d
       0.0 -1.8519384e-21 3.6769754e-11 1.878607e-11
0001d0 de 55 5b a8 30 b4 c4 31 28 11 c8 b2 4e 08 dd 33
       -1.2175562e-14 5.7248357e-09 -2.3290866e-08 1.0292625e-07
0001e0 43 53 c8 34 c3 45 3c 35 f2 07 33 b4 81 8c d1 b5
       3.7313484e-07 7.0136974e-07 -1.6673565e-07 -1.5612605e-06
0001f0 96 df 12 b6 10 b7 16 b6 be ca 08 b6 a3 62 1e b6
       -2.188584e-06 -2.2458298e-06 -2.038359e-06 -2.3601249e-06
000200 2a 4d d8 b5 93 9f 12 b5 0f 4d 77 32 96 90 ec b4
       -1.6115712e-06 -5.462145e-07 1.4394813e-08 -4.4063626e-07
000210 58 46 df b4 de b8 d6 b4 2b 5f b0 b4 9a d8 09 b4
       -4.158817e-07 -3.9995115e-07 -3.2851798e-07 -1.2837918e-07
000220 35 aa b1 b3 08 ac 94 b3 05 8c 5b 31 9b 8a 96 2d
       -8.273165e-08 -6.923079e-08 3.1948286e-09 1.7114579e-11
000230 00 00 00 00 00 00 00 00 f9 e6 57 2d f6 4e 81 b2
       0.0 0.0 1.2272621e-11 -1.5053484e-08
000240 bc ed 4b b3 a9 6e f8 b3 4e d6 9d b3 10 57 91 34
       -4.748084e-08 -1.1568529e-07 -7.349864e-08 2.70717e-07
000250 0f 43 43 33 00 70 06 b6 44 e7 4f b6 06 95 5c b6
       4.5462965e-08 -2.0032749e-06 -3.0980018e-06 -3.2869298e-06
000260 aa 40 51 b6 58 a3 3b b6 80 5d 3f b6 76 46 50 b6
       -3.1181066e-06 -2.796025e-06 -2.8515642e-06 -3.103543e-06
000270 9d 74 12 b6 9e 39 08 b6 89 a6 0b b6 1c a6 10 b6
       -2.1823573e-06 -2.0299117e-06 -2.080955e-06 -2.155436e-06
000280 48 ee d5 b5 46 4f 98 b5 3c 8c da b4 7b da 16 b2
       -1.5939086e-06 -1.1347954e-06 -4.0707698e-07 -8.780826e-09
000290 03 12 48 34 b4 fe 1a 33 dc 0c 85 31 2b 3c de 2d
       1.8633004e-07 3.608757e-08 3.8722714e-09 2.5265198e-11
0002a0 00 00 00 00 ea ea 33 97 ca 79 77 31 53 cd 04 b3
       0.0 -5.8134523e-25 3.601246e-09 -3.0920386e-08
0002b0 75 12 00 b4 60 dc b6 b3 2f 5e 3d 34 20 ea f3 b4
       -1.1927644e-07 -8.5151214e-08 1.763626e-07 -4.5432625e-07
0002c0 43 c8 eb b5 df c1 46 b6 5a 91 11 b6 cb 74 03 b6
       -1.7567148e-06 -2.9617147e-06 -2.169129e-06 -1.9588504e-06
0002d0 ed 14 03 b6 6f 20 25 b6 7f ad 23 b6 29 d3 06 b6
       -1.9532702e-06 -2.4605795e-06 -2.438988e-06 -2.0090467e-06
0002e0 76 d7 fb b5 e9 ce 51 b6 21 d9 87 b6 c6 0b 7c b6
       -1.8763665e-06 -3.1263864e-06 -4.0485907e-06 -3.755778e-06
0002f0 09 94 6c b6 6d 52 2e b6 12 36 98 b5 45 b5 f2 b4
       -3.5252908e-06 -2.5975999e-06 -1.1340619e-06 -4.5207904e-07
000300 16 70 fe 32 67 7c 96 b3 22 16 4a 32 98 aa cb 2f
       2.9620463e-08 -7.007548e-08 1.176298e-08 3.70467e-10
000310 04 00 00 80 11 ac 01 28 b3 c4 21 29 f8 00 2b b2
       -6e-45 7.1982495e-15 3.591979e-14 -9.95373e-09
000320 d6 7e bd b2 95 1c 5d 33 2e 6a ad 34 77 b1 a0 b5
       -2.2060174e-08 5.1481567e-08 3.2301017e-07 -1.1972578e-06
000330 d4 9d fc b5 a9 42 0c b6 0b 14 a9 b5 47 9d df b5
       -1.8821397e-06 -2.0900427e-06 -1.2597314e-06 -1.6660568e-06
000340 af db db b5 a8 7c 22 b6 39 2c 19 b6 d6 94 fe b5
       -1.6380708e-06 -2.421244e-06 -2.2824518e-06 -1.8967792e-06
000350 89 79 63 b6 41 a4 8f b6 8c 2a c1 b6 47 25 92 b6
       -3.3896379e-06 -4.280854e-06 -5.7568013e-06 -4.3554787e-06
000360 6b bc 96 b6 ad 91 30 b6 52 4c f6 b5 02 74 94 b5
       -4.492283e-06 -2.6310838e-06 -1.835064e-06 -1.1060622e-06
000370 8a de 45 b3 d3 7a e3 b3 eb a8 b0 33 5b 1d 0e b0
       -4.6070035e-08 -1.0592853e-07 8.226365e-08 -5.1701016e-10
000380 48 40 00 00 82 14 50 28 37 0c 55 af e0 aa 64 33
       2.306e-41 1.1550766e-14 -1.9376577e-10 5.3240797e-08
000390 d6 ce fd 32 ea 9d aa b2 29 82 1d b4 81 bc ca b5
       2.9547135e-08 -1.9862416e-08 -1.4669116e-07 -1.5105035e-06
0003a0 4d 1d 83 b5 3d 12 17 b5 92 d2 9b b5 e6 b9 a3 b5
       -9.768788e-07 -5.6278424e-07 -1.1609684e-06 -1.219855e-06
0003b0 2c 7f fc b5 57 d0 52 b6 3a 76 8c b6 5c 27 11 b6
       -1.8812475e-06 -3.1413708e-06 -4.1860885e-06 -2.1629594e-06
0003c0 8a fe 7b b6 e0 e6 c7 b6 2b ba d3 b6 c6 20 96 b6
       -3.7550076e-06 -5.9575395e-06 -6.309963e-06 -4.4741637e-06
0003d0 94 65 4e b6 fb 2f 45 b6 22 43 f8 b5 04 61 bf b5
       -3.0755518e-06 -2.9383216e-06 -1.8496978e-06 -1.4258844e-06
0003e0 e9 e3 c9 b4 96 86 59 b2 8e d9 20 2f ae c4 ce b1
       -3.7604994e-07 -1.2661664e-08 1.4629206e-10 -6.017749e-09
0003f0 05 a2 16 0f 22 47 6a 28 ad 52 c6 b0 f1 69 70 33
       7.426775e-30 1.3005034e-14 -1.4429894e-09 5.5975708e-08

exp_avg_sq f4 [10, 784]
000000 00 00 00 00 00 00 00 00 00 00 00 00 00 00 00 00
       0.0 0.0 0.0 0.0
000010 00 00 00 00 00 00 00 00 00 00 00 00 00 00 00 00
       0.0 0.0 0.0 0.0
000020 00 00 00 00 00 00 00 00 00 00 00 00 00 00 00 00
       0.0 0.0 0.0 0.0
000030 ed 04 68 24 32 76 da 26 83 98 b9 26 ec 0b 25 22
       5.0311153e-17 1.5158826e-15 1.2878292e-15 2.2367981e-18
000040 00 00 00 00 00 00 00 00 00 00 00 00 00 00 00 00
       0.0 0.0 0.0 0.0
000050 00 00 00 00 00 00 00 00 00 00 00 00 00 00 00 00
       0.0 0.0 0.0 0.0
000060 00 00 00 00 00 00 00 00 00 00 00 00 00 00 00 00
       0.0 0.0 0.0 0.0
000070 00 00 00 00 00 00 00 00 00 00 00 00 00 00 00 00
       0.0 0.0 0.0 0.0
000080 f2 f1 56 21 a4 e7 e8 22 22 3a 25 24 06 50 3b 28
       7.282623e-19 6.3128985e-18 3.5827912e-17 1.0397938e-14
000090 66 2c cd 28 75 ac b6 28 46 45 3b 29 1b 9a 02 2a
       2.2778827e-14 2.028085e-14 4.1582426e-14 1.1599786e-13
0000a0 0d 46 c6 28 23 19 cd 28 5b 12 a3 29 4b 4b f6 29
       2.2012796e-14 2.2770473e-14 7.241838e-14 1.0937656e-13
0000b0 89 02 bb 2a 2a d1 e3 2a c4 27 cc 29 d1 ff 2b 2a
       3.3219632e-13 4.0468437e-13 9.066318e-14 1.5276605e-13
0000c0 e7 aa 47 2a 16 fc 23 2a 1f 18 3e 28 33 18 4b 25
       1.7734044e-13 1.4564768e-13 1.0552349e-14 1.7615642e-16
0000d0 00 00 00 00 00 00 00 00 00 00 00 00 00 00 00 00
       0.0 0.0 0.0 0.0
0000e0 00 00 00 00 00 00 00 00 2a d0 13 23 78 06 18 22
       0.0 0.0 8.0129664e-18 2.0603266e-18
0000f0 5e a9 78 28 15 b3 d1 26 db f2 40 29 79 0a 34 2a
       1.3803491e-14 1.4550829e-15 4.2843208e-14 1.5990845e-13
000100 50 ce d4 2a 33 a2 2d 2b be 1c 98 2b c0 86 af 2b
       3.7801923e-13 6.1687043e-13 1.0808227e-12 1.2471899e-12
000110 39 e6 be 2b 20 ed dd 2b dc a9 58 2c 75 f9 96 2c
       1.3564212e-12 1.576881e-12 3.0789737e-12 4.2909517e-12
000120 db 63 9a 2c 1c c1 c8 2c 0c 21 b0 2c 8a ce 94 2c
       4.3880294e-12 5.7057813e-12 5.00589e-12 4.2293434e-12
000130 49 c3 36 2c 83 57 e3 2b 2d eb 5d 2b 79 87 7b 2a
       2.597216e-12 1.615361e-12 7.8841344e-13 2.234028e-13
000140 81 2c be 29 5b 2b 41 28 00 00 00 00 00 00 00 00
       8.445415e-14 1.0723053e-14 0.0 0.0
000150 00 00 00 00 00 00 00 00 45 6e 29 25 bd ca d3 24
       0.0 0.0 1.4695774e-16 9.1850115e-17
000160 5e 43 95 27 10 97 26 29 17 c7 36 2a e1 6c 2b 2b
       4.1428847e-15 3.699043e-14 1.623392e-13 6.0902504e-13
000170 cb 5b 06 2c e8 1b 67 2c 94 88 c8 2c e1 1f 0a 2d
       1.90935e-12 3.2842565e-12 5.699505e-12 7.85147e-12
000180 9a 86 31 2d 09 df 5b 2d a7 71 89 2d 1d ec a4 2d
       1.0091173e-11 1.24982325e-11 1.5625569e-11 1.8749497e-11
000190 58 ab b9 2d ce 34 b4 2d da 45 90 2d fc 30 4a 2d
       2.1108157e-11 2.048708e-11 1.6401925e-11 1.1493247e-11
0001a0 01 69 f3 2c 8e d2 93 2c 75 bc d9 2b 43 06 29 2b
       6.918133e-12 4.2013676e-12 1.5471085e-12 6.004955e-13
0001b0 91 57 bc 2a c6 f6 e3 28 85 bd cf 25 00 00 00 00
       3.345627e-13 2.5309084e-14 3.60372e-16 0.0
0001c0 00 00 00 00 f0 95 61 25 c7 14 3e 27 0d 09 37 27
       0.0 1.956644e-16 2.637906e-15 2.5401258e-15
0001d0 0a 1e a5 29 bb 0f 07 2b 49 f8 a8 2b aa 7e 68 2c
       7.332683e-14 4.7983465e-13 1.2006031e-12 3.3039496e-12
0001e0 0a 87 e5 2c 9c 93 47 2d 86 6a a5 2d c3 86 f2 2d
       6.523564e-12 1.1344616e-11 1.8805634e-11 2.7572061e-11
0001f0 e6 43 2a 2e 13 bf 5f 2e 19 f3 85 2e cf 27 9b 2e
       3.871383e-11 5.0874038e-11 6.0913226e-11 7.0556554e-11
000200 b0 c3 9f 2e b2 fd 8f 2e c9 b8 68 2e 3e 09 26 2e
       7.265244e-11 6.5479525e-11 5.2914815e-11 3.775224e-11
000210 fb 79 c3 2d 52 b3 47 2d fe f7 b1 2c 9d 88 1e 2c
       2.2223104e-11 1.13516575e-11 5.0581752e-12 2.2528986e-12
000220 f2 3e ac 2b a7 ac a9 2a 52 6f d3 28 e3 4b 8b 25
       1.2238806e-12 3.0140232e-13 2.3473983e-14 2.416408e-16
000230 00 00 00 00 00 00 00 00 4b 80 a2 26 73 8e 99 28
       0.0 0.0 1.1275782e-15 1.704819e-14
000240 f8 29 b3 2a 6c 2b e0 2b 3a 2e 81 2c 62 bb 0e 2d
       3.182591e-13 1.5928209e-12 3.6715327e-12 8.113373e-12
000250 be 35 87 2d 2c 52 e6 2d 47 a9 37 2e bc 4c 84 2e
       1.537159e-11 2.6184464e-11 4.175973e-11 6.016296e-11
000260 b7 b4 af 2e 37 d2 e2 2e 70 3c 10 2f 6c 37 30 2f
       7.99018e-11 1.0314632e-10 1.3118195e-10 1.6026797e-10
000270 4a 78 41 2f 9f a8 3a 2f 06 10 16 2f 72 32 ce 2e
       1.7595983e-10 1.6976508e-10 1.3648113e-10 9.376756e-11
000280 b8 8a 77 2e c2 69 09 2e 24 2b 8d 2d a6 c2 10 2d
       5.6284505e-11 3.1244125e-11 1.6049002e-11 8.228673e-12
000290 9a 6c 6a 2c 5f 4f 5c 2b b0 98 05 2a c2 66 7a 26
       3.3313686e-12 7.826985e-13 1.1865747e-13 8.6875437e-16
0002a0 00 00 00 00 c1 49 a0 22 8b 0d 91 28 6c 8b eb 29
       0.0 4.3446177e-18 1.6104107e-14 1.0460282e-13
0002b0 77 f1 8c 2b 67 62 56 2c 50 c4 1a 2d ca b6 9c 2d
       1.0014618e-12 3.0465853e-12 8.797477e-12 1.7816321e-11
0002c0 8e 15 01 2e 9d b2 4e 2e b2 0b 98 2e f8 2a cd 2e
       2.935035e-11 4.6997618e-11 6.914237e-11 9.3299535e-11
0002d0 b4 6f 03 2f e7 03 2c 2f b6 37 61 2f e8 0e 88 2f
       1.1954066e-10 1.5644695e-10 2.0483423e-10 2.4748847e-10
0002e0 28 06 96 2f d1 f6 91 2f 18 3b 78 2f 35 ac 36 2f
       2.7289215e-10 2.655072e-10 2.2576463e-10 1.6613984e-10
0002f0 88 78 ec 2e 4f c5 8a 2e 1f 86 14 2e 2b 62 88 2d
       1.0753448e-10 6.3105625e-11 3.3770427e-11 1.5505005e-11
000300 c8 5c dd 2c 17 22 2b 2c a8 68 d2 2a 05 d5 cc 28
       6.2914986e-12 2.4319485e-12 3.7376113e-13 2.2740932e-14
000310 97 63 e9 22 7d fe b4 28 95 fa aa 28 8c f8 4e 2a
       6.326022e-18 2.0094381e-14 1.8982464e-14 1.8382707e-13
000320 16 22 c4 2b 89 50 cc 2c 46 a3 84 2d 9e b8 f7 2d
       1.3936098e-12 5.80697e-12 1.507917e-11 2.8162635e-11
000330 9a d6 42 2e 62 c3 91 2e ac 60 ca 2e a3 5d 04 2f
       4.4301098e-11 6.6285435e-11 9.203069e-11 1.2038597e-10
000340 5c fd 2b 2f 78 bd 61 2f 47 28 8e 2f 13 ca a2 2f
       1.5642371e-10 2.0530944e-10 2.5858268e-10 2.961121e-10
000350 2e 63 ae 2f c7 5d ad 2f c9 14 97 2f 05 83 6d 2f
       3.1720887e-10 3.153515e-10 2.748151e-10 2.1601572e-10
000360 b9 4b 25 2f ef 05 cf 2e c0 81 6b 2e 56 7a d1 2d
       1.5033565e-10 9.414324e-11 5.3548055e-11 2.3814877e-11
000370 7f d4 1f 2d d8 33 5b 2c 71 86 0d 2b ec 3b 2b 28
       9.085287e-12 3.115055e-12 5.027984e-13 9.5054e-15
000380 c4 eb ed 25 89 50 4d 29 c0 c4 eb 28 e5 3c 95 2a
       4.1272707e-16 4.5588997e-14 2.6175568e-14 2.650997e-13
000390 0b ae 1c 2c bb f0 19 2d 66 85 a8 2d 02 bf 1a 2e
       2.2265547e-12 8.750496e-12 1.915863e-11 3.5185195e-11
0003a0 0b 28 6f 2e 3b cd ae 2e c5 29 ef 2e f4 1a 1c 2f
       5.4377874e-11 7.94906e-11 1.08758814e-10 1.4197693e-10
0003b0 db 02 47 2f 2a 01 78 2f 52 cb 8f 2f f1 8e 99 2f
       1.8099959e-10 2.2555882e-10 2.6156016e-10 2.7932104e-10
0003c0 61 d9 9e 2f eb 7c 9f 2f 54 97 93 2f c7 45 77 2f
       2.889449e-10 2.901069e-10 2.684667e-10 2.2489309e-10
0003d0 b2 8a 33 2f 10 31 e4 2e c5 60 81 2e 81 b1 ff 2d
       1.632923e-10 1.0376955e-10 5.8834305e-11 2.9068971e-11
0003e0 ca 4c 42 2d f0 03 84 2c f4 59 32 2b 5c ba 71 29
       1.1044674e-11 3.752103e-12 6.336314e-13 5.367439e-14
0003f0 81 66 3e 26 4f c0 75 29 94 34 99 28 3a 49 a0 2a
       6.605841e-16 5.456773e-14 1.7009214e-14 2.847252e-13

exp_avg f4 [10]
000000 ec 2f f6 b6 4b 30 ce 36 04 00 00 00 36 46 7e b6
       -7.33695e-06 6.1449005e-06 6e-45 -3.7889818e-06
000010 04 00 00 00 eb 13 e2 35 49 81 72 36 2f 8b 02 b7
       6e-45 1.6844109e-06 3.6136064e-06 -7.78101e-06
000020 04 00 00 00 2a 17 89 b7
       6e-45 -1.634246e-05

exp_avg_sq f4 [10]
000000 66 36 4b 30 ca 8b ba 31 9d 6e 98 25 ae 27 1b 32
       7.3928275e-10 5.4292046e-09 2.644275e-16 9.03121e-09
000010 62 13 f2 26 dc e9 18 32 4d d1 02 32 4b eb ab 31
       1.6797377e-15 8.900738e-09 7.614585e-09 5.0035047e-09
000020 98 b7 2f 26 5e 29 12 33
       6.096414e-16 3.4030897e-08
