lightning_logs/version_3/checkpoints/epoch=9-step=8599.ckpt (torch, 213753 bytes, 36 tensors)

encoder.0.weight f4 [10, 784]
0	0xbc3d6533	-0.011559772
1	0x3cfd58e3	0.030926174
2	0x3d103053	0.035202336
3	0x3b5e5f01	0.0033931138
4	0xbd105bd0	-0.03524381
5	0x3b348cdc	0.002754978
6	0xbaf36493	-0.0018569402
7	0x3d021ec8	0.031767637
8	0xbc75ffb8	-0.015014581
9	0x3b04dba5	0.002027252
10	0x3c9c75c5	0.019099126
11	0xbc97e75e	-0.018542942
12	0x3bc38bc1	0.0059675877
13	0x3d0d5a7f	0.034510132
14	0xbc8d3a8c	-0.017239831
15	0x3b64426e	0.0034829634
16	0x3cdc32fc	0.02687978
17	0xbcfc2e65	-0.030783841
18	0x3b885ca5	0.0041614347
19	0xbcc4f595	-0.024042884
20	0xbcbda695	-0.023150722
21	0x3cbd0485	0.023073444
22	0x3b73a625	0.0037177887
23	0xbd0d990d	-0.03456979
24	0xbc0eb91c	-0.008711126
25	0xbb5317ee	-0.0032210308
26	0x3c97c575	0.018526772
27	0xbcd8d7c1	-0.026470067
28	0xbc185dca	-0.009299705
29	0xbcc844e3	-0.02444691
30	0xbc037a60	-0.008024782
31	0xbb3802b7	-0.002807779
32	0xbc43c42e	-0.011948628
33	0x3c154920	0.009111673
34	0xbcaee9b1	-0.021351667
35	0xbc88be4d	-0.016692305
36	0x3a381218	0.0007021739
37	0xb9a096bb	-0.0003062988
38	0xbc985816	-0.01859669
39	0x3cc946ae	0.024569836
40	0xbc8c8f35	-0.01715813
41	0x3c847067	0.016166879
42	0x3a8c6634	0.0010711611
43	0x3bd48f62	0.006486819
44	0xbb2460c5	-0.0025082093
45	0x3cb32ab5	0.02187095
46	0x3c4a777e	0.012357591
47	0x3bf1cc0b	0.00737906
48	0x3cb9e39d	0.022691542
49	0xbcc55074	-0.024086215
50	0xbb950585	-0.004547777
51	0x3cc5ea26	0.024159502
52	0x3c80e667	0.015734864
53	0xbbd7c8c1	-0.006585211
54	0x3c26a20e	0.010170473
55	0x3b4a9301	0.0030910375
56	0x3ceb7281	0.028741123
57	0x3cc2e2ee	0.02378985
58	0x3cf20b63	0.029546445
59	0x3b302b13	0.0026881143
60	0x3ccf6a07	0.025319112
61	0x3ce11985	0.027477989
62	0xbc8c2877	-0.017109139
63	0xbcaf22fc	-0.021378987
64	0x3ca704ff	0.020388125
65	0xbd08c2e7	-0.033389
66	0x3c8c3c63	0.017118638
67	0xbd30a22d	-0.043123413
68	0xbd091f8d	-0.033477355
69	0xbb866326	-0.004101175
70	0x3c91f2b3	0.017815923
71	0xba57ddc3	-0.0008234644
72	0xbc64a164	-0.013954494
73	0x3cb154a5	0.021646807
74	0xbc46a43e	-0.012124119
75	0xbd105bbe	-0.035243742
76	0x3d050190	0.032472193
77	0xbd020db9	-0.03175137
78	0xba866a17	-0.0010255006
79	0x3c7db278	0.015484445
80	0xbaa6222b	-0.0012674978
81	0x3bab5701	0.0052288775
82	0xbcb94207	-0.022614492
83	0xbca5385e	-0.02016848
84	0xb52b6db7	-6.386212e-07
85	0x3c79b565	0.015241002
86	0xbce28dda	-0.02765553
87	0x3cecb1c1	0.028893353
88	0x3cd49b87	0.025953067
89	0x3c043a3a	0.008070523
90	0x3cd13e66	0.02554245
91	0xbd285584	-0.04109718
92	0x3cc96580	0.024584532
93	0x3b12cff4	0.0022401782
94	0xbc8eaab8	-0.01741539
95	0x3c31bff3	0.010848987
96	0x3ca45313	0.020059144
97	0x3d10ec61	0.03538168
98	0x3cf6e59d	0.030138785
99	0xba02a486	-0.00049836223
100	0x3cc3d600	0.023905754
101	0x3d0dd16c	0.03462355
102	0xbcfc167e	-0.030772444
103	0x3c48a6dc	0.012246814
104	0xbc9661a2	-0.018357102
105	0x3c3a3dcc	0.011367273
106	0x3ccc2be1	0.024923267
107	0x3c8e4174	0.017365195
108	0xbc96ef8a	-0.018424768
109	0x3ce7d892	0.028301511
110	0x3cefcaf1	0.029271575
111	0xbaa77493	-0.0012775831
112	0x3cd8bbbc	0.026456706
113	0xbd08c795	-0.03339346
114	0xbc90de8e	-0.017684247
115	0x3cb66b7a	0.022268046
116	0xbb6d2977	-0.0036188045
117	0x3ccf6be4	0.025320001
118	0x3bfca653	0.007710257
119	0x3caa827f	0.020814179
120	0xbd3b23d2	-0.045688458
121	0xbd359291	-0.04432923
122	0x3c06bf02	0.008224251
123	0x3c9abfa6	0.018890213
124	0xbd04396f	-0.032281335
125	0x3bf74f74	0.0075473133
126	0xbd0daebf	-0.03459048
127	0xbc01f801	-0.007932664
128	0xbc2ccd2e	-0.0105469655
129	0xbc9c730e	-0.019097831
130	0xbc157b78	-0.0091236755
131	0xbc46db6e	-0.012137277
132	0xbbaf4121	-0.00534834
133	0x3c37c341	0.011215986
134	0xbca559a1	-0.02018434
135	0xbb002ae3	-0.0019556812
136	0xbcdcc109	-0.026947515
137	0xbd0bfe67	-0.034178164
138	0x3cc706f5	0.02429531
139	0x3bc7abbe	0.0060934713
140	0xbcce589a	-0.025188733
141	0xbc7cbd41	-0.015425981
142	0xbc45adce	-0.012065364
143	0xbcbb0dde	-0.02283376
144	0xbd052990	-0.03251034
145	0x3ca95187	0.020668758
146	0xbd072c72	-0.03300137
147	0xbceb5c1b	-0.028730443
148	0xbacaea13	-0.0015481137
149	0xbca399de	-0.01997083
150	0xbcf5d325	-0.030007908
151	0xbd0eaf4d	-0.03483515
152	0xbc83895f	-0.016056715
153	0x3bba59d4	0.005686978
154	0x3cd88248	0.02642931
155	0xbd2be44f	-0.04196578
156	0x3b881367	0.0041527036
157	0xbb2d9b32	-0.0026490209
158	0xbd01c479	-0.03168151
159	0xbcbc4672	-0.02298281
160	0xbbbdc102	-0.0057908306
161	0xbca58f04	-0.020209797
162	0xbbb292de	-0.005449637
163	0xbd1f99f0	-0.038965166
164	0xbd329e49	-0.043607984
165	0xbc0ae127	-0.008476532
166	0xbc188e41	-0.00931126
167	0x3b21fdd2	0.002471794
168	0xbcc2d29e	-0.02378207
169	0x3c3f23e5	0.011666273
170	0xbae3bedc	-0.0017375606
171	0x3ce19b8a	0.027539987
172	0xbbeb6c7f	-0.0071845646
173	0xbd023f28	-0.03179851
174	0xbc0db521	-0.0086491415
175	0xbbf27ec9	-0.007400368
176	0xbd0944b6	-0.033512793
177	0xbd38b4e5	-0.04509439
178	0x3c936216	0.017991107
179	0x3c9715d1	0.01844302
180	0xbd0866e9	-0.033301268
181	0xbd005c7a	-0.031338193
182	0xbc2f0328	-0.010681905
183	0xbd195dca	-0.03744296
184	0x3ccf68f0	0.025318593
185	0xbb9820c4	-0.004642578
186	0x3be66ed0	0.007032253
187	0xbce74e0b	-0.028235456
188	0xbceeb55e	-0.029139217
189	0xbbc1369e	-0.0058964035
190	0xbcc6af03	-0.024253374
191	0xbca46e1b	-0.020072034
192	0xbd2715c1	-0.04079223
193	0xbcb4873d	-0.022037143
194	0xbbad5764	-0.005289959
195	0xbc462073	-0.012092697
196	0xbca7f27c	-0.020501368
197	0xbcb06967	-0.021534635
198	0x3c5d17f8	0.013494484
199	0x3c2016fd	0.009771106
200	0xbd280d41	-0.041028265
201	0xbcbaa00f	-0.0227814
202	0xbd1d7feb	-0.03845207
203	0xbb80d8de	-0.0039321026
204	0x3c9ac3be	0.018892165
205	0x3c5480e5	0.012970184
206	0x3c2762f4	0.010216463
207	0xbcae7b71	-0.021299096
208	0xbd260357	-0.04053053
209	0xbc8f43a1	-0.017488303
210	0x3cc0dd1b	0.023542931
211	0xbca2eb9e	-0.019887742
212	0xbc3d1d6e	-0.011542661
213	0x3cbc7ce9	0.02300878
214	0x3bcd83d2	0.0062718177
215	0xbca35e8f	-0.01994255
216	0x3ca71370	0.02039501
217	0xbc996b32	-0.018727873
218	0xbc8f28a3	-0.017475432
219	0xbc8e64dc	-0.017382078
220	0xbcd14c14	-0.025548972
221	0x3c3631b9	0.011120253
222	0x3cafcafc	0.021459095
223	0x3c32ae7c	0.010905858
224	0x3d06ea8f	0.032938536
225	0xbc94668c	-0.018115304
226	0x3d121cd7	0.035672035
227	0xbd2bf6d1	-0.04198343
228	0x3c81cb44	0.015843995
229	0xbd3c04ed	-0.045903135
230	0x3aefb14b	0.001828709
231	0xbcf9bee9	-0.03048654
232	0xbc652c0f	-0.013987555
233	0xbc95491e	-0.018223342
234	0xbc939d9c	-0.01801949
235	0xbc9010f6	-0.017586213
236	0xba1c2e1e	-0.00059578
237	0xbcd505e6	-0.02600379
238	0x3b5154ce	0.0031941417
239	0x3cd2506e	0.025673117
240	0x3c808493	0.015688216
241	0xbcf7b85a	-0.030239273
242	0x3c0117c3	0.0078792
243	0xbb6fc840	-0.0036587864
244	0xbaa01dbd	-0.0012215894
245	0x3aab866f	0.0013086329
246	0x3becbf5f	0.0072249616
247	0x3c8a7593	0.016901767
248	0xbce4dbac	-0.027936779
249	0x3cd3ad87	0.02583958
250	0x3c593842	0.013258042
251	0xbc100325	-0.008789812
252	0xbce68efc	-0.028144352
253	0xbc47b94e	-0.012190176
254	0xbc9db829	-0.019252853
255	0x3ce8b62b	0.028407177

encoder.0.bias f4 [10]
0	0xbd19ac1a	-0.037517644
1	0x3e8c9b7e	0.2746238
2	0x3db7d0d8	0.08975381
3	0xbc9c9daa	-0.019118149
4	0x3d214183	0.039369117
5	0xbd9fea74	-0.0780839
6	0x3cac0998	0.021000668
7	0x3ca3922a	0.019967157
8	0xbc922764	-0.017841049
9	0x3e962f0e	0.29332775

encoder.2.weight f4 [10, 10]
0	0xbdc768aa	-0.0973676
1	0x3e9816f0	0.29705
2	0x3e6911c6	0.22760686
3	0x3ea9b346	0.33144587
4	0xbd31fd35	-0.043454368
5	0xbe5ab99d	-0.21359868
6	0xbe744295	-0.23853524
7	0xbd99f2f0	-0.0751704
8	0x3e639f11	0.22228648
9	0xbe896e59	-0.26842
10	0x3e4fb579	0.2028407
11	0x3e364451	0.17799498
12	0x3d6f2cec	0.05839245
13	0x3e57a7a2	0.2106004
14	0x3e1230dd	0.14276452
15	0x3ddd7b28	0.10814506
16	0xbccb4644	-0.024813779
17	0xbe9926d4	-0.29912436
18	0x3e0acbe3	0.13554339
19	0x3ebe1097	0.37122032
20	0x3e707999	0.23483886
21	0x3e251ded	0.16124697
22	0xbe0839f8	-0.13303363
23	0x3d491002	0.049087532
24	0xbe3c17a7	-0.18368398
25	0xbd8b479c	-0.06800768
26	0x3e85fbbf	0.2616863
27	0xbdc09e9f	-0.094052546
28	0x3e6f9b50	0.23399091
29	0x3e58d136	0.21173558
30	0xbdf19bcb	-0.11797293
31	0x3e742ccc	0.23845214
32	0xbc611fe0	-0.01374051
33	0xbd9966ae	-0.07490288
34	0xbebdd5dd	-0.37077227
35	0x3ea4a6c2	0.32158476
36	0x3e8adcc2	0.2712155
37	0x3dda6ae1	0.10664917
38	0x3e2f7081	0.1713276
39	0x3e934517	0.2876365
40	0x3e015fe0	0.1263423
41	0x3ebf4379	0.37356165
42	0xbc75b847	-0.014997548
43	0x3d8083cf	0.062751405
44	0x3d0d9592	0.03456647
45	0xbeb311bf	-0.34974477
46	0xbe68c4f1	-0.22731377
47	0x3d4983bd	0.0491979
48	0x3e98252c	0.2971586
49	0x3de67c9f	0.11254238
50	0xbdb669e7	-0.08906918
51	0xbe681ffd	-0.22668453
52	0xbe6eba96	-0.23313364
53	0xbea21f65	-0.31664577
54	0x3e3c4b06	0.18387994
55	0x3e473ef4	0.19457608
56	0xbe68125f	-0.22663258
57	0xbe69bf97	-0.22826992
58	0xbc85b9e4	-0.016323991
59	0x3db4ecfa	0.08834262
60	0x3cef9f5f	0.029250799
61	0xbe971467	-0.29507753
62	0x3e6e0300	0.23243332
63	0xbe890764	-0.2676345
64	0xbe8e940a	-0.2784732
65	0x3e32bdd7	0.1745523
66	0xbc219976	-0.009863248
67	0x3e39789a	0.18112412
68	0x3cee698b	0.029103061
69	0x3e50ba82	0.20383647
70	0x3e85c4f2	0.2612682
71	0xbd1ba77f	-0.038001534
72	0xbe538b81	-0.20658685
73	0x3ebaa30e	0.36452526
74	0xbc52bf5c	-0.012863006
75	0x3ecc2442	0.39871413
76	0x3dc26355	0.09491602
77	0xbe7c6f05	-0.24651726
78	0x3ad74b1b	0.0016425581
79	0xbe21ada8	-0.15788901
80	0x3e96c446	0.2944662
81	0x3ebd8c51	0.37021115
82	0x3e855455	0.26040903
83	0x3e2e219b	0.17005007
84	0x3e7dacfa	0.24773017
85	0x3d7eb2a9	0.062182102
86	0xbd9ef7da	-0.07762118
87	0xbd23f733	-0.04003067
88	0xbd8f995f	-0.07011675
89	0xbe3569b1	-0.177161
90	0x3da9bccc	0.08287963
91	0xbccca29c	-0.024979882
92	0xbda17c24	-0.07885006
93	0xbe3d4c19	-0.1848606
94	0xbde1f781	-0.11033536
95	0xbc95a7b5	-0.018268446
96	0x3ce830f0	0.028343648
97	0xbe5c1ed4	-0.21496135
98	0xbe99d045	-0.3004171
99	0xbe02b8df	-0.12765835

encoder.2.bias f4 [10]
0	0x3e7dd32c	0.24787587
1	0x3e0e47f9	0.13894643
2	0x3ea673ba	0.32510167
3	0xbd6cacf2	-0.05778212
4	0x3e78ba3f	0.24289797
5	0x3c0cbb89	0.008589634
6	0xbea0e3dd	-0.31423846
7	0x3d0be657	0.034155216
8	0x3e389dac	0.18028897
9	0xbdde1141	-0.10843135

encoder.4.weight f4 [10, 10]
0	0x3e0a6b4b	0.13517492
1	0x3e1a4cab	0.15068309
2	0xbd368ffe	-0.044570915
3	0x3e8bdb26	0.27315634
4	0xbdf317d4	-0.11869779
5	0xbdea1ad8	-0.11430901
6	0x3e4d8221	0.20069171
7	0x3dd67c29	0.104729004
8	0xbdd2fb93	-0.1030189
9	0xbe19ec43	-0.15031533
10	0xbdcd6e69	-0.10030825
11	0x3e0846bd	0.13308235
12	0xbe99cca1	-0.30038932
13	0x3e2993ea	0.16560331
14	0xbeb42bb8	-0.35189605
15	0x3dd37161	0.1032436
16	0x3d2b417a	0.04181049
17	0x3d489fa7	0.04898038
18	0x3e6c067b	0.23049347
19	0x3e0cab65	0.13737257
20	0x3df76fb2	0.12081851
21	0xbea1c4c2	-0.31595427
22	0xbe142a79	-0.14469327
23	0xbcb88505	-0.022524366
24	0x3e582fac	0.21111935
25	0xbdf532b0	-0.119725585
26	0xbe8d557d	-0.27604285
27	0x3ea90eb8	0.33019042
28	0xbe4679b5	-0.19382365
29	0x3d1dce4b	0.038526814
30	0xbeceac38	-0.40365767
31	0xbe67f10f	-0.2265055
32	0x3d09dae6	0.033656023
33	0xbe86a532	-0.2629791
34	0xbef47a19	-0.47749403
35	0x3d4befe1	0.049789313
36	0x3dd3e4fb	0.10346409
37	0xbd9d08b1	-0.076676734
38	0xbe759476	-0.23982415
39	0x3c8d62b8	0.017258987
40	0x3e145a35	0.14487536
41	0x3e510c7e	0.20414922
42	0x3babd3ce	0.005243755
43	0xbf02bfc3	-0.51073855
44	0x3e0f8b26	0.14017925
45	0x3e595655	0.2122434
46	0x3e456d7a	0.19280043
47	0x3e90fea8	0.28319287
48	0x3e74d977	0.23911081
49	0xbe9d34df	-0.307044
50	0x3d94ff1a	0.07275219
51	0x3e83c3d3	0.2573534
52	0xbe897cbd	-0.2685298
53	0xbe60d7b5	-0.21957286
54	0x3e904849	0.2818015
55	0xbdab6bb3	-0.08370151
56	0xbe91f7a1	-0.28509238
57	0xbf05523d	-0.5207861
58	0x3dca4542	0.09876491
59	0x3e54fad1	0.20798804
60	0xbb635824	-0.0034689987
61	0xbe3fc47b	-0.18727295
62	0xbdca53d7	-0.098792724
63	0xbb818d32	-0.0039535994
64	0x3e1551ce	0.14581987
65	0xbe9d1683	-0.30681238
66	0xbe3493b6	-0.17634472
67	0xbe42e7b8	-0.19033706
68	0x3eb4569d	0.3522233
69	0x3e9a5b3e	0.30147737
70	0xbda171f4	-0.07883063
71	0xbd7ed60d	-0.062215853
72	0x3eda2eee	0.4261393
73	0x3e715737	0.23568426
74	0x3e381ebe	0.17980477
75	0x3e2da90a	0.16959015
76	0x3ddb0cee	0.106958255
77	0xbeb8adbd	-0.36070052
78	0x3de0f185	0.10983566
79	0x3e62fcc2	0.22166732
80	0x3e6e9b2d	0.23301382
81	0x3cf06204	0.029343612
82	0xbeb15a86	-0.34639376
83	0x3d9ed727	0.07755881
84	0xbeb29a45	-0.34883323
85	0x3e64c8c0	0.22342205
86	0xbe526ed7	-0.20550095
87	0xbe735661	-0.2376342
88	0x3e890083	0.26758203
89	0x3ce98bd7	0.028509064
90	0x3dc04faf	0.093901984
91	0xbe08b3d1	-0.13349845
92	0xbe170591	-0.14748217
93	0xbf122e78	-0.57102156
94	0x3dde1d41	0.108454235
95	0xbe1706f3	-0.14748745
96	0xbcd0bfe4	-0.025482126
97	0xbd5e67e6	-0.054298304
98	0x3e1c8326	0.15284404
99	0x3e2bd2b3	0.16779594

encoder.4.bias f4 [10]
0	0xbe8b2ba0	-0.2718172
1	0xbe12f7bd	-0.14352317
2	0x3e6b9dd4	0.23009425
3	0xbd109f1e	-0.035307996
4	0xbef8d433	-0.48599395
5	0x3e252e76	0.16131005
6	0xbe854ac3	-0.260336
7	0x3db53bcc	0.08849296
8	0x3e3096ec	0.17245072
9	0x3e66585e	0.22494647

decoder.0.weight f4 [10, 10]
0	0x3e5b7b0d	0.21433659
1	0xbe988f4f	-0.29796836
2	0x3d30b648	0.043142587
3	0x3e88263b	0.26591668
4	0xbe88bc97	-0.26706383
5	0xbc9932cb	-0.018700978
6	0x3e524524	0.20534188
7	0x3dc21733	0.09477081
8	0xbe7b8a35	-0.2456444
9	0xbe179da4	-0.14806229
10	0x3c37d883	0.011221054
11	0xbe87ed04	-0.26548016
12	0x3ec00b4b	0.37508616
13	0x3e9934d3	0.29923114
14	0x3e380522	0.17970708
15	0x3e4fc33e	0.20289323
16	0xbe53e86f	-0.20694135
17	0x3db643fa	0.08899684
18	0xbe7b660b	-0.24550645
19	0xbc8fd509	-0.017557638
20	0xbec0549f	-0.3756456
21	0xbeb3fd06	-0.3515398
22	0xbe221c45	-0.15831096
23	0xbe9b4c41	-0.30331615
24	0x3cface6b	0.030616006
25	0x3eb0ea62	0.3455382
26	0xbd6c1f26	-0.057646893
27	0x3e8c376d	0.27386037
28	0xbe621353	-0.22077684
29	0x3e0b81ce	0.13623735
30	0x3e5af245	0.21381481
31	0x3e403aa3	0.18772368
32	0xbe96b08d	-0.29431573
33	0xbd44ed77	-0.048078027
34	0xbe00f0f6	-0.1259192
35	0x3cd0660f	0.02543929
36	0x3e41588f	0.18881439
37	0x3ddb023f	0.10693788
38	0x3e7b59a2	0.24545911
39	0xbe8fab06	-0.28060168
40	0xbe74e437	-0.23915182
41	0xbdfc5198	-0.1232025
42	0x3da60572	0.08106507
43	0x3e5ba72d	0.21450491
44	0xbdcbe438	-0.09955639
45	0xbe527be0	-0.20555067
46	0x3e14a6e1	0.14516784
47	0x3e8355d4	0.2565142
48	0xbd91c53f	-0.071177
49	0x3e6bc35c	0.23023742
50	0xbe6539f6	-0.22385392
51	0xbe1cf328	-0.15327132
52	0xbe841192	-0.25794655
53	0xbe591e2d	-0.21202917
54	0x3e188908	0.14896023
55	0xbc867fba	-0.016418327
56	0x3e7c9952	0.24667862
57	0xbecef287	-0.4041941
58	0x3e8460cb	0.25855097
59	0x3e3d2323	0.18470435
60	0xbdf24ddb	-0.11831256
61	0xbd2aadc1	-0.04166961
62	0xbe01435b	-0.1262335
63	0xbcfad27f	-0.03061795
64	0xbe2d801f	-0.16943406
65	0xbe8e5b64	-0.278041
66	0x3e75783c	0.23971647
67	0xbe483b46	-0.19553861
68	0xbebfcc5b	-0.37460598
69	0xbe44688e	-0.1918051
70	0x3b9030fe	0.0044003716
71	0xbdeac610	-0.11463559
72	0x3eb9c0eb	0.36279997
73	0xbe2e07df	-0.1699519
74	0xbe5d698f	-0.21622299
75	0x3a3cd44f	0.00072032673
76	0x3e517f97	0.20458828
77	0x3e389190	0.18024278
78	0x3e820aea	0.25398952
79	0xbddc41e5	-0.10754756
80	0x3e6fe320	0.23426485
81	0x3e059a2a	0.1304709
82	0x3e374a3a	0.17899409
83	0x3e58e8f8	0.2118262
84	0xb89c3737	-7.448944e-05
85	0xbeabee94	-0.33580458
86	0xbe60abaa	-0.21940485
87	0xbc38c179	-0.011276596
88	0xbe13c41d	-0.1443028
89	0xbe5964d9	-0.21229877
90	0x3e6c3ced	0.23070116
91	0xbdf19649	-0.11796243
92	0x3e25862f	0.16164468
93	0xbe64a4dd	-0.22328515
94	0x3cd71253	0.026253855
95	0xbe88b14b	-0.26697764
96	0xbe7bbcb2	-0.245837
97	0x3e0f6dd8	0.14006746
98	0xbe9a9cd0	-0.30197763
99	0xbd0010de	-0.031266086

decoder.0.bias f4 [10]
0	0x3e61e5ec	0.22060364
1	0x3e26c788	0.16287053
2	0x3c83f45c	0.01610773
3	0x3e4016e4	0.18758732
4	0xbe335e44	-0.17516428
5	0x3e1fb76b	0.15597312
6	0xbec60bde	-0.3868093
7	0x3ee0d966	0.43915862
8	0xbe808d8d	-0.25107995
9	0x3e3a08a7	0.18167363

decoder.2.weight f4 [10, 10]
0	0x3d571702	0.052512176
1	0x3de28b39	0.11061711
2	0xbe9a7682	-0.3016854
3	0x3b289603	0.002572418
4	0xbd0c2257	-0.034212437
5	0x3e90392a	0.28168613
6	0xbcd70eea	-0.026252229
7	0xbd9c9d49	-0.07647187
8	0xbd83c9b1	-0.06434954
9	0x3e6edf67	0.23327409
10	0x3e2f567a	0.17122832
11	0xbe1a29e0	-0.15055037
12	0x3ea46d60	0.32114697
13	0x3ecaf68f	0.39641234
14	0x3e813ee0	0.25243282
15	0xbe285155	-0.16437276
16	0xbd49e6e0	-0.049292445
17	0xbefe5b37	-0.49678966
18	0xbc111bde	-0.008856742
19	0xbe5100d5	-0.20410474
20	0xbd56e64a	-0.052465715
21	0xbe0662cb	-0.13123624
22	0xbe1776ff	-0.14791487
23	0x3d40c15c	0.047059402
24	0x3e32aef8	0.17449558
25	0x3eac0ce8	0.33603597
26	0xbe136919	-0.1439556
27	0xbf333ff8	-0.70019484
28	0x3e63302b	0.22186343
29	0x3ec10e44	0.37706196
30	0x3e17359d	0.14766546
31	0x3e25e37d	0.16200061
32	0x3ed7a998	0.42121577
33	0xbeb70bf0	-0.35751295
34	0x3e7152d9	0.2356676
35	0x3e2c752f	0.16841577
36	0xbe0c6741	-0.13711263
37	0xbe9a65a8	-0.30155683
38	0xbe86f817	-0.26361153
39	0x3ecbbf09	0.39794186
40	0xbe82f257	-0.25575516
41	0x3e7e79d1	0.24851157
42	0x3c9344e4	0.017977186
43	0x3e91538c	0.28384054
44	0x3e80dfd6	0.25170773
45	0xbebf7ab6	-0.3739831
46	0x3e2b728d	0.16742916
47	0xbd6f510c	-0.0584269
48	0x3e320cd5	0.17387708
49	0x3f09b91e	0.5379809
50	0x3d63e6a3	0.055639874
51	0xbe3ebc10	-0.18626428
52	0xbe99a02c	-0.30005014
53	0x3c123296	0.008923193
54	0xbe7bd986	-0.24594697
55	0x3e1a64d2	0.15077522
56	0x3e46583d	0.19369598
57	0x3f5530d3	0.83277625
58	0xbe20b877	-0.15695368
59	0x3c9362fe	0.01799154
60	0xbdc5cdce	-0.09658395
61	0xbe6752d8	-0.22590196
62	0x3dc7523b	0.09732481
63	0x3e822a7c	0.25423038
64	0xbdc3975e	-0.095503554
65	0xbdbe937d	-0.09305475
66	0xbe0c5a91	-0.13706423
67	0xbe6a6353	-0.22889452
68	0xbcc2df94	-0.023788251
69	0xbdb8f122	-0.090303674
70	0xbd97d695	-0.07413975
71	0xbda6e6fc	-0.081495255
72	0x3e85c6c8	0.2612822
73	0x3e0abcdb	0.13548605
74	0xbdbd5195	-0.09244076
75	0x3e88acb9	0.26694277
76	0x3e4267d2	0.18984917
77	0x3e9194f8	0.28433967
78	0x3e18bb58	0.14915216
79	0x3e5d442f	0.21608041
80	0x3cc603b9	0.024171697
81	0xbac7423e	-0.0015202237
82	0xbe31f3e5	-0.17378195
83	0xbcadcaa8	-0.021214798
84	0x3e2a5b26	0.16636333
85	0x3ea6e706	0.32598132
86	0x3eb12dea	0.34605342
87	0xbee10fcb	-0.43957362
88	0xbe8c7528	-0.27433133
89	0x3dec97b5	0.11552373
90	0x3e8a2f05	0.26988998
91	0x3e63bfbf	0.22241114
92	0xbe06700e	-0.13128683
93	0x3e76cd5f	0.2410178
94	0xb92938ad	-0.0001613821
95	0x3e0a5967	0.13510667
96	0x3e7c3b4b	0.24631993
97	0xbe254ea3	-0.16143279
98	0xbd4a66b2	-0.049414344
99	0xbb5c56b0	-0.0033621006

decoder.2.bias f4 [10]
0	0x3e7a3b10	0.24436593
1	0x3eabfa9a	0.3358963
2	0x3ec9af4f	0.39391562
3	0x3ddd9c68	0.10820848
4	0x3d851d21	0.064996965
5	0x3dd9679b	0.10615464
6	0x3e668f43	0.22515588
7	0xbeec306b	-0.4613069
8	0x3eaee8b9	0.34161928
9	0x3e573ca7	0.21019231

decoder.4.weight f4 [784, 10]
0	0x3e2e4d4c	0.17021674
1	0x3d75a962	0.05997599
2	0x3d321f42	0.04348684
3	0xbdd17fdf	-0.102294676
4	0xbcd7eb87	-0.026357425
5	0xbddebcb3	-0.10875835
6	0xbdfb6f95	-0.12277142
7	0x3d9a7d5b	0.07543441
8	0xbe0a6056	-0.13513312
9	0xbe144fa5	-0.14483507
10	0xbe6d27dd	-0.23159738
11	0x3c87c42d	0.016573036
12	0x3df29c0e	0.11846171
13	0x3bfa6de9	0.007642497
14	0x3bfa9a5d	0.007647796
15	0x3d952108	0.07281691
16	0xbe2ab8f0	-0.1667211
17	0xbd046031	-0.032318298
18	0xbccb913d	-0.024849528
19	0x3e1452b6	0.14484677
20	0xbe16edb5	-0.14739116
21	0x3d8966e5	0.06709079
22	0x3dfcdac9	0.123464175
23	0xbcd53920	-0.026028216
24	0xba017b53	-0.0004939336
25	0x3cced39f	0.025247393
26	0xbe8c8a15	-0.27449098
27	0xbc15f2b9	-0.009152108
28	0xbdba80af	-0.09106576
29	0x3df348d9	0.11879129
30	0xbe406573	-0.187887
31	0x3c3f3ee9	0.011672714
32	0x3e29c076	0.16577324
33	0xbcdbac6a	-0.026815612
34	0xbc51eb1f	-0.012812405
35	0x3ce65331	0.02811584
36	0xbe470edf	-0.19439267
37	0xbbf002ec	-0.007324567
38	0xbe01ae18	-0.12664068
39	0x3e01cd93	0.12676077
40	0xbe213562	-0.1574302
41	0xbda3fa28	-0.08006698
42	0x3dd52037	0.10406535
43	0xbe030c09	-0.1279756
44	0x3bd7be9f	0.006584003
45	0xbd6e255e	-0.058141105
46	0xbca8c23a	-0.020600427
47	0x3dc7f35a	0.097632125
48	0x3d55390f	0.05205637
49	0xbde0f204	-0.10983661
50	0x3dc43b3c	0.095816106
51	0x3ba78463	0.0051122173
52	0xbd834d84	-0.06411269
53	0x39157d4a	0.00014256421
54	0x3b9ad6cd	0.0047253133
55	0x3b6d1fb1	0.003618222
56	0x3dfecf9a	0.124419406
57	0x3c031415	0.008000393
58	0x3d9c7118	0.076387584
59	0xbe08194b	-0.13290899
60	0x3e3797d1	0.17929007
61	0xbcf12a53	-0.029439127
62	0xbe0a0c8f	-0.13481353
63	0xbdb5e923	-0.08882358
64	0x3c37401f	0.011184721
65	0xbe6fa599	-0.23403014
66	0xbe1f24db	-0.15541403
67	0x3de53a9b	0.11192819
68	0xbc913610	-0.017725974
69	0x3d170c4e	0.03687697
70	0xbe442a57	-0.19156776
71	0xbdbbf6a9	-0.09177906
72	0x3dcacc1e	0.099022135
73	0x3b645991	0.0034843425
74	0xbb978ee4	-0.004625188
75	0x3d7a8dd6	0.06117042
76	0x3df02a5f	0.11726832
77	0xbc3141e5	-0.010818933
78	0x3c819aa9	0.015820818
79	0x3cca8908	0.024723545
80	0x3e4853ee	0.19563267
81	0x3de08d08	0.109643996
82	0xbe238980	-0.15970421
83	0x3c886ef5	0.016654471
84	0x3cd118ff	0.025524614
85	0xbc03e894	-0.008051056
86	0xbce0e697	-0.027453704
87	0xbb84a4cc	-0.0040479656
88	0x3e00df46	0.12585172
89	0xbdee4cd9	-0.11635751
90	0xbd218a90	-0.039438784
91	0x3dfc7edb	0.12328883
92	0x3d38adcd	0.045087624
93	0x3da1b717	0.0789625
94	0xb8cf0e7e	-9.8732286e-05
95	0x3e21bdad	0.15795012
96	0xbd621147	-0.05519226
97	0xbdc64391	-0.09680856
98	0xbbbf175d	-0.0058316425
99	0x3c54c62a	0.012986699
100	0x3e0dc1ee	0.1384351
101	0x3ceadddd	0.028670246
102	0xbe2a6468	-0.16639864
103	0x3e0e592a	0.13901201
104	0x3bf52bc4	0.007482024
105	0x3c8c3308	0.017114177
106	0x3d056c9c	0.03257428
107	0xbdb3b302	-0.087743774
108	0xbb81e6f4	-0.0039642993
109	0x3e4435d6	0.19161162
110	0xbe4c4a13	-0.19950132
111	0xbcee9841	-0.029125335
112	0x3e29fedf	0.16601132
113	0x3e0f3914	0.13986617
114	0xbd0ec0cd	-0.034851838
115	0x3e64d9f6	0.2234877
116	0x3e38138e	0.1797621
117	0xbe15a386	-0.1461316
118	0xbdfcaafd	-0.12337301
119	0x3e0e94a3	0.13923888
120	0x3da810c8	0.08206326
121	0x3e0e12f1	0.13874413
122	0x3d32f095	0.04368647
123	0x3e1bc080	0.15210152
124	0xbcf8a7e4	-0.030353494
125	0x3e5bacd6	0.2145265
126	0x3dc9d9d3	0.09856
127	0xbe22d1bc	-0.1590032
128	0xbdd6af96	-0.10482709
129	0xbc1786d4	-0.009248454
130	0x3ceea51d	0.029131467
131	0xbd916531	-0.07099379
132	0x3caeefae	0.021354523
133	0x3d9043fb	0.07044216
134	0xbcfd80f6	-0.030945282
135	0x3d3b60c5	0.045746583
136	0x3e68828c	0.2270605
137	0xbd4e4968	-0.050362974
138	0xbdb60b92	-0.088889256
139	0x3d030e59	0.031996105
140	0xbe6643b5	-0.22486766
141	0xbd345552	-0.04402668
142	0x3d217843	0.03942133
143	0xbe1cff20	-0.15331697
144	0x3d40298a	0.046914615
145	0xbdb873ff	-0.090064995
146	0xbe53e736	-0.20693669
147	0x3dfc0b3f	0.123068325
148	0x3e370f75	0.1787699
149	0xbd3e3785	-0.046439666
150	0xbe1220e2	-0.14270356
151	0x3b4dc2f8	0.0031396728
152	0x3e24433a	0.1604127
153	0xbd87f0b0	-0.06637704
154	0xbc0d333e	-0.008618174
155	0x3da72859	0.081619926
156	0x3d49f4d9	0.04930577
157	0x3ca57858	0.020198986
158	0x3cbbf118	0.02294211
159	0xbe3d39eb	-0.18479125
160	0x3d510845	0.051033277
161	0x3d8e8cae	0.06960426
162	0x3def3d38	0.116815984
163	0xbd438b1f	-0.047740098
164	0xbceadb74	-0.028669097
165	0x3d098b06	0.03357985
166	0xbc89aa8b	-0.016804954
167	0x3c1c6e4b	0.00954778
168	0xbdd08abe	-0.10182713
169	0xbe2a9bab	-0.16660945
170	0xbe11495c	-0.1418814
171	0xbd0d3b8d	-0.03448062
172	0xbceedd01	-0.029158117
173	0x3dacc9e2	0.084369436
174	0x3c83c1a5	0.016083548
175	0x3ca70dab	0.02039226
176	0xbdd793b8	-0.10526222
177	0xbd70924d	-0.058733273
178	0xbc2d2d2e	-0.010569854
179	0x3e9e46a2	0.30913264
180	0xbded5877	-0.11589139
181	0xbdff223d	-0.12457702
182	0x3e07c8d4	0.13260204
183	0x3cdc1a88	0.02686812
184	0xbd1bc24d	-0.038027097
185	0x3d633684	0.055471912
186	0x3e694358	0.22779596
187	0xbcdd94ba	-0.027048457
188	0xbde6f741	-0.11277629
189	0x3ce71eea	0.028212983
190	0xbe0874d4	-0.13325816
191	0x3c6462d9	0.013939583
192	0xbd79d17d	-0.0609908
193	0x3d602878	0.054726094
194	0x3d1773bf	0.03697562
195	0x3d099d77	0.033597436
196	0xbe0acb0f	-0.13554023
197	0xbd23194c	-0.039819047
198	0x3dd041af	0.10168778
199	0x3e498b19	0.19681968
200	0x3c3829d1	0.011240439
201	0xbcfd974b	-0.030955931
202	0x3cb88ec7	0.022529019
203	0x3d09ebb5	0.033672053
204	0xbc97e43a	-0.018541444
205	0x3c837ee8	0.016051725
206	0x3da5fbb8	0.08104652
207	0xbcd12424	-0.025529929
208	0xbd907424	-0.07053402
209	0x3d25c964	0.040475264
210	0xbe745389	-0.23859991
211	0x3c7d69c0	0.015467107
212	0x3e25fb11	0.16209055
213	0xbd805533	-0.062662505
214	0x3b2d9e21	0.0026491957
215	0x3a2d92d5	0.0006621306
216	0xbe924855	-0.2857081
217	0x3cac5179	0.021034943
218	0xbda190e6	-0.07888965
219	0x3e0987f2	0.13430765
220	0xbe67001f	-0.2255864
221	0xbdaebb2f	-0.08531796
222	0x3d84d619	0.064861484
223	0xbd33242c	-0.043735668
224	0x3c910b36	0.017705541
225	0xbcab5be2	-0.020917837
226	0xbd912aec	-0.07088265
227	0x3d11dab0	0.035608947
228	0x3d477c0c	0.048702285
229	0x3dd37747	0.10325485
230	0xbd8e04e1	-0.06934524
231	0x3d570e10	0.052503645
232	0x380bef31	3.3362947e-05
233	0x3dd27960	0.10277057
234	0x3ac5092b	0.001503264
235	0x3d66224e	0.05618506
236	0xbe3491de	-0.17633769
237	0xbdbaaff6	-0.09115593
238	0xbdc14d90	-0.09438622
239	0x3e9505b8	0.29105926
240	0x3c0de41d	0.0086603435
241	0x3e1fa3d5	0.1558984
242	0x3e1aff9e	0.15136573
243	0x3c3c431e	0.011490611
244	0xbd030a84	-0.03199245
245	0x3dbe447d	0.09290407
246	0xbe4e0573	-0.20119266
247	0xbd6c38c0	-0.05767131
248	0xbe45c268	-0.19312441
249	0xba8414c4	-0.001007699
250	0x3ce7adcb	0.028281113
251	0xbe1197f3	-0.1421812
252	0xbd8f6347	-0.070013575
253	0x3d50f711	0.05101687
254	0xbc3ffc9c	-0.011717942
255	0xbd913484	-0.07090095

decoder.4.bias f4 [784]
0	0x3db241d1	0.0870396
1	0xbb8cd9ea	-0.0042984383
2	0x3cf1c94e	0.029514935
3	0x3d0f9da2	0.03506244
4	0x3dcf21e6	0.101138875
5	0xbcca2f94	-0.02468089
6	0x3e0f6ff2	0.14007547
7	0xbc2a5aec	-0.010397654
8	0xbd225638	-0.039633006
9	0xbde07ca6	-0.10961275
10	0xbdad2d4f	-0.084559076
11	0xbe116ed0	-0.14202428
12	0xbe3acad6	-0.18241438
13	0xbd60065d	-0.05469357
14	0x3e08159f	0.13289498
15	0x38901c29	6.8717e-05
16	0x3ab03349	0.0013443019
17	0xbcaf7827	-0.021419598
18	0xbca53478	-0.02016662
19	0xbcd2efb9	-0.025749074
20	0xbca3d5eb	-0.019999465
21	0x3d8ceaf1	0.06880749
22	0x3d711cd9	0.058865402
23	0xbd53326c	-0.051561758
24	0xbd1dcbfd	-0.038524617
25	0x3c6fb3e8	0.014630295
26	0xbd2cd279	-0.04219291
27	0x3e03a477	0.12855707
28	0x3d31c08c	0.043396518
29	0x3d3bb20f	0.045824107
30	0xbd27bef3	-0.040953588
31	0xbc32ccd5	-0.010913094
32	0xbc821ae2	-0.01588196
33	0xbd274004	-0.040832534
34	0xbcc58476	-0.024111014
35	0xbc6e4260	-0.014542192
36	0xbbc636cf	-0.006049014
37	0xbdeefba3	-0.1166909
38	0xbd0a20f0	-0.033722818
39	0x3db4f420	0.08835626
40	0xbd9c51de	-0.076328024
41	0x3d8aad92	0.06771387
42	0x3c1ae00e	0.009452833
43	0x3ce6f818	0.028194472
44	0xbbce7d59	-0.0063015637
45	0xbd408f8b	-0.047011893
46	0x3c853d2b	0.016264519
47	0xbce9c341	-0.028535487
48	0x3c9a6b3c	0.018849961
49	0xbe4ae139	-0.19812478
50	0xbce529d6	-0.02797405
51	0x3de35a20	0.11101174
52	0xbdcc1732	-0.09965362
53	0x3deeb4aa	0.11655553
54	0x3dae473d	0.085096814
55	0x3dfb12c6	0.1225944
56	0xbde45726	-0.11149435
57	0x3cb025b4	0.021502353
58	0xbc324ec9	-0.010883042
59	0xbdf8aa92	-0.12141909
60	0xbd9ffbbe	-0.07811688
61	0x3c0bf2f1	0.008541808
62	0x3d6e295a	0.058144905
63	0xbd7e9b6c	-0.06215994
64	0xbdce385d	-0.10069344
65	0xbda0c87c	-0.07850739
66	0x3da01ebe	0.078183636
67	0xbda020ca	-0.07818754
68	0x3da5dfa5	0.080992974
69	0x3d8d9cb6	0.06914656
70	0xbdddc81a	-0.10829182
71	0x3ceb8648	0.028750554
72	0x3d653318	0.05595693
73	0x3e0cae76	0.13738427
74	0x3db81358	0.089880645
75	0x3e54d9e3	0.20786242
76	0xbcfc1dc9	-0.030775921
77	0xbce83603	-0.028346067
78	0xbd04685a	-0.03232608
79	0x3c673ee7	0.014114118
80	0x3dd2d761	0.102949865
81	0x3cf9c7b4	0.030490734
82	0xbc5f49d6	-0.013628444
83	0x3e141a95	0.14463265
84	0xbd689808	-0.056785613
85	0x3dc2a870	0.09504783
86	0xbd0681e4	-0.032838717
87	0xbd654ecc	-0.05598335
88	0xbe3bfaed	-0.1835744
89	0xbd696598	-0.056981653
90	0x3ce77fbf	0.028259156
91	0x3c62597f	0.013815283
92	0xbc4b6e60	-0.012416452
93	0xbdd9a225	-0.1062663
94	0xbbaa0eea	-0.005189766
95	0x3d6c468f	0.057684477
96	0xbcfad36d	-0.030618394
97	0x3db67782	0.08909513
98	0x3c48c63b	0.012254293
99	0x3d80d952	0.062914506
100	0xbd97e2de	-0.07416318
101	0xbdf02274	-0.117253214
102	0x3e408266	0.18799743
103	0x3d26f462	0.040760405
104	0x3d83ccf4	0.06435576
105	0x3d4f873c	0.05066608
106	0xbe30f703	-0.17281727
107	0xbcd69f50	-0.026199013
108	0xbd0feddd	-0.035138953
109	0xbd013e1d	-0.031553376
110	0x3dc2f685	0.09519676
111	0xbd4f3a20	-0.05059254
112	0xbcc14239	-0.023591148
113	0x3d9cb7e9	0.076522656
114	0xbcba1573	-0.022715306
115	0xbd2b8dea	-0.041883387
116	0x3cbdf259	0.02318685
117	0x3d6bbd83	0.05755378
118	0x3d04d956	0.03243383
119	0x3db1884a	0.08668573
120	0x3ccfea4f	0.025380282
121	0x3d558c01	0.05213547
122	0xbc72e99a	-0.014826203
123	0x3d020ae2	0.03174866
124	0x3e08c96a	0.13358083
125	0x3de73533	0.11289444
126	0x3dc261af	0.09491288
127	0x3e0dcc75	0.13847525
128	0xbde856aa	-0.11344655
129	0x3d4dd9bd	0.05025648
130	0xbd6e6cff	-0.058209416
131	0xbe3c0c6a	-0.1836411
132	0x3d30348c	0.043018863
133	0x3cea2750	0.028583199
134	0x3d4983a3	0.049197804
135	0x3e26767f	0.1625614
136	0xbe2a329b	-0.16620867
137	0xbe23edcb	-0.1600868
138	0xbd006119	-0.0313426
139	0xbe0a2e39	-0.13494195
140	0x3cdcbd1a	0.02694564
141	0x3c0e8a79	0.008700007
142	0xbc28acd3	-0.010295111
143	0x3d9dbfce	0.077025995
144	0xbda9b88d	-0.082871534
145	0x3d11fac9	0.035639558
146	0x3d75c3b1	0.06000108
147	0xbd824d5f	-0.063624136
148	0x3ce4c75e	0.027927097
149	0x3e009059	0.12555064
150	0x3d7a45d6	0.061101757
151	0xbd1b054e	-0.037846856
152	0x3dbe0b22	0.09279467
153	0xbca504a5	-0.020143816
154	0x3d86d9ff	0.06584548
155	0x3c80e996	0.015736382
156	0xbc3b56e9	-0.011434295
157	0xbe7de852	-0.24795654
158	0xbde8a91c	-0.1136038
159	0xbe2c21fb	-0.16809838
160	0xbe2556cb	-0.1614639
161	0xbe181521	-0.1485181
162	0x3e3ff012	0.18743923
163	0xbd58538f	-0.052814063
164	0xbc802291	-0.015641483
165	0xbe10cb24	-0.14139992
166	0xbdba1507	-0.09086042
167	0xbb8a5a9e	-0.004222228
168	0xbd178970	-0.036996305
169	0x3e0b823f	0.13623904
170	0xbc1a28ce	-0.009409143
171	0x3d9455c3	0.0724292
172	0x3d56a5c0	0.052404165
173	0xbda75ba7	-0.08171778
174	0xbe3cf3d9	-0.18452395
175	0xbe18a065	-0.14904936
176	0x3d311af4	0.043238595
177	0x3d1dfc2d	0.03857057
178	0xbcad3ae8	-0.021146253
179	0xbd676a15	-0.056497652
180	0xbe4b8630	-0.19875407
181	0xbd7f4465	-0.062321085
182	0xbde19bfa	-0.11016078
183	0xbdc9cd35	-0.09853593
184	0xbdd9baaa	-0.106313065
185	0xbd40187a	-0.046898343
186	0xbe15b867	-0.14621125
187	0xbe82001e	-0.25390714
188	0xbea619d3	-0.32441577
189	0xbd7eaebc	-0.06217836
190	0xbd1fad66	-0.038983725
191	0xbe0e0437	-0.13868795
192	0x3da7e22f	0.08197438
193	0x3de5e5a3	0.1122544
194	0xbd2cb705	-0.04216673
195	0x3df5f95b	0.120104514
196	0x3b91b4cb	0.004446601
197	0x3e0e4544	0.1389361
198	0xbd71edf3	-0.059064817
199	0x3d20bfa4	0.039245263
200	0xbd1996e5	-0.03749742
201	0x3e08e824	0.13369805
202	0xbd39443a	-0.04523108
203	0x3df02606	0.117260024
204	0x3ca366df	0.019946514
205	0xbd858217	-0.06518953
206	0x3dc4ccde	0.09609388
207	0xbd095085	-0.033524055
208	0x3cb580da	0.022156168
209	0x3c7b0842	0.015321793
210	0x3d83e95f	0.064409964
211	0x3e431f57	0.19054924
212	0x3dd85181	0.10562421
213	0x3cc9dd26	0.024641585
214	0xbdbb0d0d	-0.091333486
215	0xbe8c6355	-0.27419534
216	0xbe4a07ef	-0.19729589
217	0xbd28c80f	-0.041206416
218	0xbda1869e	-0.07887004
219	0x3c765e47	0.015037126
220	0x3c0a539b	0.008442785
221	0xbdb41a23	-0.08794048
222	0x3d313093	0.043259215
223	0xbb46b8a4	-0.0030322457
224	0x3cefa75c	0.029254608
225	0x3df93fc9	0.12170369
226	0x3d6d34f7	0.05791184
227	0x3b631ad9	0.0034653454
228	0x3e29b626	0.1657339
229	0xbe26e557	-0.16298424
230	0xbdc50f95	-0.09622113
231	0x3dac3e22	0.084102884
232	0x3de71d51	0.112848885
233	0x3d0b5edd	0.034026016
234	0x3df4e6a9	0.119580574
235	0xbd501f3e	-0.050811045
236	0x3ac8523b	0.0015283296
237	0xbe4c50c8	-0.1995269
238	0x3df69b2e	0.12041317
239	0xbc8d6ea2	-0.017264668
240	0xbc037a10	-0.008024707
241	0xbdd020a2	-0.10162474
242	0xbde83901	-0.11338998
243	0xbd86d6e6	-0.065839574
244	0xbde517b1	-0.111861594
245	0x3cf10ece	0.029426005
246	0x3c9b9037	0.018989665
247	0xbe4edf26	-0.20202312
248	0xbccdb18d	-0.025109077
249	0x3d33f7e7	0.04393759
250	0x3913f746	0.00014111129
251	0x3e327a9a	0.17429581
252	0xbdc0da59	-0.094166465
253	0xbb3a825c	-0.0028459048
254	0xbd46006b	-0.048340242
255	0xbdaa12df	-0.083043806

exp_avg f4 [10, 784]
0	0x00000000	0.0
1	0x00000000	0.0
2	0x00000000	0.0
3	0x00000000	0.0
4	0x00000000	0.0
5	0x00000000	0.0
6	0x00000000	0.0
7	0x00000000	0.0
8	0x00000000	0.0
9	0x00000000	0.0
10	0x00000000	0.0
11	0x00000000	0.0
12	0x00000000	0.0
13	0x00000000	0.0
14	0x00000000	0.0
15	0x00000000	0.0
16	0x00000000	0.0
17	0x00000000	0.0
18	0x00000000	0.0
19	0x00000000	0.0
20	0x00000000	0.0
21	0x00000000	0.0
22	0x00000000	0.0
23	0x00000000	0.0
24	0x00000000	0.0
25	0x00000000	0.0
26	0x00000000	0.0
27	0x00000000	0.0
28	0x00000000	0.0
29	0x00000000	0.0
30	0x00000000	0.0
31	0x00000000	0.0
32	0x00000000	0.0
33	0x00000000	0.0
34	0x00000000	0.0
35	0x00000004	6e-45
36	0x00000004	6e-45
37	0x00000004	6e-45
38	0x00000004	6e-45
39	0x00000004	6e-45
40	0x00000004	6e-45
41	0x80000004	-6e-45
42	0x80000004	-6e-45
43	0x80000004	-6e-45
44	0x00000004	6e-45
45	0x00000004	6e-45
46	0x00000004	6e-45
47	0x00000004	6e-45
48	0x00000004	6e-45
49	0x00000004	6e-45
50	0x00000004	6e-45
51	0x00000004	6e-45
52	0x00000000	0.0
53	0x00000000	0.0
54	0x00000000	0.0
55	0x00000000	0.0
56	0x00000000	0.0
57	0x00000000	0.0
58	0x00000000	0.0
59	0x00000000	0.0
60	0x00000000	0.0
61	0x00000000	0.0
62	0x00000000	0.0
63	0x00000004	6e-45
64	0x00000004	6e-45
65	0x00000004	6e-45
66	0x00000004	6e-45
67	0x00000004	6e-45
68	0x00000004	6e-45
69	0x00000004	6e-45
70	0x00000004	6e-45
71	0x00000004	6e-45
72	0x00000004	6e-45
73	0x00000004	6e-45
74	0x00000004	6e-45
75	0x00000004	6e-45
76	0x00000004	6e-45
77	0x00000004	6e-45
78	0x00000004	6e-45
79	0x00000004	6e-45
80	0x00000004	6e-45
81	0x00000000	0.0
82	0x00000000	0.0
83	0x00000000	0.0
84	0x00000000	0.0
85	0x00000000	0.0
86	0x00000000	0.0
87	0x00000000	0.0
88	0x00000000	0.0
89	0x00000004	6e-45
90	0x80000004	-6e-45
91	0x00000004	6e-45
92	0x00000004	6e-45
93	0x00000004	6e-45
94	0x00000004	6e-45
95	0x00000004	6e-45
96	0x00000004	6e-45
97	0x00000004	6e-45
98	0x00000004	6e-45
99	0x00000004	6e-45
100	0x00000004	6e-45
101	0x00000004	6e-45
102	0x00000004	6e-45
103	0x00000004	6e-45
104	0x00000004	6e-45
105	0x00000004	6e-45
106	0x00000004	6e-45
107	0x00000004	6e-45
108	0x00000004	6e-45
109	0x00000004	6e-45
110	0x00000000	0.0
111	0x00000000	0.0
112	0x00000000	0.0
113	0x00000000	0.0
114	0x00000000	0.0
115	0x00000000	0.0
116	0x80000004	-6e-45
117	0x00000004	6e-45
118	0x00000004	6e-45
119	0x00000004	6e-45
120	0x00000004	6e-45
121	0x00000004	6e-45
122	0x00000004	6e-45
123	0x00000004	6e-45
124	0x00000004	6e-45
125	0x00000004	6e-45
126	0x00000004	6e-45
127	0x00000004	6e-45
128	0x00000004	6e-45
129	0x00000004	6e-45
130	0x00000004	6e-45
131	0x00000004	6e-45
132	0x00000004	6e-45
133	0x00000004	6e-45
134	0x00000004	6e-45
135	0x00000004	6e-45
136	0x00000004	6e-45
137	0x00000004	6e-45
138	0x80000004	-6e-45
139	0x80000004	-6e-45
140	0x00000000	0.0
141	0x00000000	0.0
142	0x00000000	0.0
143	0x80000004	-6e-45
144	0x00000004	6e-45
145	0x00000004	6e-45
146	0x00000004	6e-45
147	0x00000004	6e-45
148	0x00000004	6e-45
149	0x00000004	6e-45
150	0x00000004	6e-45
151	0x00000004	6e-45
152	0x00000004	6e-45
153	0x00000004	6e-45
154	0x00000004	6e-45
155	0x00000004	6e-45
156	0x00000004	6e-45
157	0x00000004	6e-45
158	0x00000004	6e-45
159	0x00000004	6e-45
160	0x00000004	6e-45
161	0x00000004	6e-45
162	0x00000004	6e-45
163	0x00000004	6e-45
164	0x00000004	6e-45
165	0x00000004	6e-45
166	0x00000004	6e-45
167	0x80000004	-6e-45
168	0x00000000	0.0
169	0x00000000	0.0
170	0x00000000	0.0
171	0x00000004	6e-45
172	0x00000004	6e-45
173	0x00000004	6e-45
174	0x00000004	6e-45
175	0x00000004	6e-45
176	0x00000004	6e-45
177	0x00000004	6e-45
178	0x00000004	6e-45
179	0x00000004	6e-45
180	0x00000004	6e-45
181	0x00000004	6e-45
182	0x00000004	6e-45
183	0x00000004	6e-45
184	0x00000004	6e-45
185	0x00000004	6e-45
186	0x00000004	6e-45
187	0x00000004	6e-45
188	0x00000004	6e-45
189	0x00000004	6e-45
190	0x00000004	6e-45
191	0x00000004	6e-45
192	0x00000004	6e-45
193	0x00000004	6e-45
194	0x00000004	6e-45
195	0x00000000	0.0
196	0x00000000	0.0
197	0x00000000	0.0
198	0x00000000	0.0
199	0x00000004	6e-45
200	0x00000004	6e-45
201	0x00000004	6e-45
202	0x00000004	6e-45
203	0x00000004	6e-45
204	0x00000004	6e-45
205	0x00000004	6e-45
206	0x00000004	6e-45
207	0x00000004	6e-45
208	0x00000004	6e-45
209	0x00000004	6e-45
210	0x00000004	6e-45
211	0x00000004	6e-45
212	0x00000004	6e-45
213	0x00000004	6e-45
214	0x00000004	6e-45
215	0x00000004	6e-45
216	0x00000004	6e-45
217	0x00000004	6e-45
218	0x00000004	6e-45
219	0x00000004	6e-45
220	0x00000004	6e-45
221	0x00000004	6e-45
222	0x00000004	6e-45
223	0x00000000	0.0
224	0x00000000	0.0
225	0x00000000	0.0
226	0x80000004	-6e-45
227	0x00000004	6e-45
228	0x00000004	6e-45
229	0x00000004	6e-45
230	0x00000004	6e-45
231	0x00000004	6e-45
232	0x00000004	6e-45
233	0x00000004	6e-45
234	0x00000004	6e-45
235	0x00000004	6e-45
236	0x00000004	6e-45
237	0x00000004	6e-45
238	0x00000004	6e-45
239	0x00000004	6e-45
240	0x00000004	6e-45
241	0x00000004	6e-45
242	0x00000004	6e-45
243	0x00000004	6e-45
244	0x00000004	6e-45
245	0x00000004	6e-45
246	0x00000004	6e-45
247	0x00000004	6e-45
248	0x00000004	6e-45
249	0x00000004	6e-45
250	0x80000004	-6e-45
251	0x00000000	0.0
252	0x00000000	0.0
253	0x00000000	0.0
254	0x80000004	-6e-45
255	0x00000004	6e-45

exp_avg_sq f4 [10, 784]
0	0x00000000	0.0
1	0x00000000	0.0
2	0x00000000	0.0
3	0x00000000	0.0
4	0x00000000	0.0
5	0x00000000	0.0
6	0x00000000	0.0
7	0x00000000	0.0
8	0x00000000	0.0
9	0x00000000	0.0
10	0x00000000	0.0
11	0x00000000	0.0
12	0x00000000	0.0
13	0x00000000	0.0
14	0x00000000	0.0
15	0x00000000	0.0
16	0x00000000	0.0
17	0x00000000	0.0
18	0x00000000	0.0
19	0x00000000	0.0
20	0x00000000	0.0
21	0x00000000	0.0
22	0x00000000	0.0
23	0x00000000	0.0
24	0x00000000	0.0
25	0x00000000	0.0
26	0x00000000	0.0
27	0x00000000	0.0
28	0x00000000	0.0
29	0x00000000	0.0
30	0x00000000	0.0
31	0x00000000	0.0
32	0x00000000	0.0
33	0x00000000	0.0
34	0x00000000	0.0
35	0x21170720	5.117022e-19
36	0x22c28b2d	5.2731163e-18
37	0x2253889e	2.8668157e-18
38	0x2334e5d7	9.80649e-18
39	0x2359815f	1.1790989e-17
40	0x21ac89e8	1.1691677e-18
41	0x1c915ef1	9.619837e-22
42	0x1fadecdb	7.3660194e-20
43	0x1e028408	6.909446e-21
44	0x1c918e0d	9.632014e-22
45	0x1ee3b802	2.4110664e-20
46	0x22033b83	1.7785316e-18
47	0x217dc53e	8.598078e-19
48	0x2010955d	1.2246695e-19
49	0x214de72e	6.9762665e-19
50	0x21a14b62	1.0929738e-18
51	0x1e0946f2	7.267391e-21
52	0x00000000	0.0
53	0x00000000	0.0
54	0x00000000	0.0
55	0x00000000	0.0
56	0x00000000	0.0
57	0x00000000	0.0
58	0x00000000	0.0
59	0x00000000	0.0
60	0x00000000	0.0
61	0x00000000	0.0
62	0x00000000	0.0
63	0x21bba9b9	1.2716538e-18
64	0x22fdd3cf	6.880005e-18
65	0x23815cc5	1.4025497e-17
66	0x239b6b5f	1.6850607e-17
67	0x23dec341	2.4151981e-17
68	0x2388f412	1.4848517e-17
69	0x23898db8	1.491359e-17
70	0x2400f83c	2.7965838e-17
71	0x23e2f6be	2.4607468e-17
72	0x23e7121f	2.5052745e-17
73	0x23a7ad31	1.8179526e-17
74	0x234981da	1.0923729e-17
75	0x23733015	1.3183238e-17
76	0x23a472b9	1.7829503e-17
77	0x233e77ff	1.0325331e-17
78	0x2307a381	7.352988e-18
79	0x22694cfc	3.1618143e-18
80	0x211a05b3	5.218477e-19
81	0x00000000	0.0
82	0x00000000	0.0
83	0x00000000	0.0
84	0x00000000	0.0
85	0x00000000	0.0
86	0x00000000	0.0
87	0x00000000	0.0
88	0x00000000	0.0
89	0x223709c5	2.4806297e-18
90	0x1c318ad2	5.874381e-22
91	0x22213e8a	2.1852677e-18
92	0x2398244c	1.6495245e-17
93	0x242dcbe7	3.7686107e-17
94	0x2485567a	5.782605e-17
95	0x24af5840	7.6043653e-17
96	0x24b69c05	7.9194226e-17
97	0x24ca3f4d	8.771077e-17
98	0x2507cda6	1.177906e-16
99	0x253d6a97	1.6429251e-16
100	0x253afe75	1.6219142e-16
101	0x252e94c9	1.5142505e-16
102	0x2511b2d2	1.2637332e-16
103	0x24f18a67	1.0475155e-16
104	0x2495eef6	6.5023265e-17
105	0x24000b75	2.776528e-17
106	0x2355b45a	1.1584944e-17
107	0x22a5bb3c	4.492158e-18
108	0x21a3a8c8	1.1089986e-18
109	0x1e55c00c	1.13158405e-20
110	0x00000000	0.0
111	0x00000000	0.0
112	0x00000000	0.0
113	0x00000000	0.0
114	0x00000000	0.0
115	0x00000000	0.0
116	0x224f6a26	2.8109926e-18
117	0x231f6276	8.640257e-18
118	0x228582d1	3.618823e-18
119	0x2370a40f	1.3045167e-17
120	0x24dd71bf	9.6036165e-17
121	0x258c5810	2.4345802e-16
122	0x26007759	4.4570667e-16
123	0x264fd839	7.211059e-16
124	0x2682b084	9.068407e-16
125	0x26a4afb4	1.142741e-15
126	0x270a7938	1.921706e-15
127	0x272fd5df	2.4402068e-15
128	0x2757223f	2.9855809e-15
129	0x274239f7	2.6954331e-15
130	0x270f351d	1.987403e-15
131	0x26b98f54	1.2875803e-15
132	0x260517e5	4.617603e-16
133	0x253afaa1	1.6217845e-16
134	0x2499d88f	6.672004e-17
135	0x2389bb5b	1.4932918e-17
136	0x21a2485c	1.09967e-18
137	0x1f5456b8	4.4964478e-20
138	0x1d6f380c	3.1660362e-21
139	0x1d6f380c	3.1660362e-21
140	0x00000000	0.0
141	0x00000000	0.0
142	0x00000000	0.0
143	0x1ba29c7c	2.6901778e-22
144	0x22cfdf30	5.634377e-18
145	0x237151f2	1.3081989e-17
146	0x245ad44c	4.7451037e-17
147	0x2592d8bd	2.547383e-16
148	0x263f8159	6.6441736e-16
149	0x26c6bc1d	1.3789998e-15
150	0x2733da2c	2.4959511e-15
151	0x279632af	4.1688315e-15
152	0x27e4228d	6.3320172e-15
153	0x2837a3df	1.01940746e-14
154	0x287e69a5	1.412274e-14
155	0x28a040d3	1.7791681e-14
156	0x28a68725	1.8488312e-14
157	0x2884d9ea	1.4749449e-14
158	0x284265c9	1.07912345e-14
159	0x27e95ed1	6.477329e-15
160	0x274951e6	2.793875e-15
161	0x267c7e19	8.760096e-16
162	0x25bca6d2	3.2725843e-16
163	0x24cec32b	8.9668886e-17
164	0x23f30ba8	2.635105e-17
165	0x2396d1cf	1.635189e-17
166	0x2237aead	2.4893597e-18
167	0x1e024af2	6.897641e-21
168	0x00000000	0.0
169	0x00000000	0.0
170	0x00000000	0.0
171	0x211b94b2	5.271284e-19
172	0x23086ea8	7.396007e-18
173	0x24ce7a3a	8.954532e-17
174	0x25f5922a	4.259977e-16
175	0x2682b399	9.069242e-16
176	0x27000ae4	1.7769472e-15
177	0x278814ea	3.777026e-15
178	0x2805ecfa	7.434369e-15
179	0x28564210	1.1893711e-14
180	0x289cc2f2	1.7404023e-14
181	0x28db291f	2.4331718e-14
182	0x28fc9396	2.8041625e-14
183	0x29113338	3.2240893e-14
184	0x29152a38	3.3121265e-14
185	0x29052367	2.956264e-14
186	0x28c3040e	2.1651107e-14
187	0x28745438	1.3562983e-14
188	0x280ac9f6	7.704332e-15
189	0x2772d4a2	3.3699515e-15
190	0x26b22fbf	1.2364173e-15
191	0x26082750	4.7237757e-16
192	0x24c3cb80	8.491251e-17
193	0x23fd000b	2.7430333e-17
194	0x224708c1	2.6974163e-18
195	0x00000000	0.0
196	0x00000000	0.0
197	0x00000000	0.0
198	0x00000000	0.0
199	0x2202e261	1.773813e-18
200	0x244e7f10	4.4776756e-17
201	0x258ba403	2.4223795e-16
202	0x2636d616	6.3434075e-16
203	0x26d322bd	1.4650482e-15
204	0x278325fe	3.6400995e-15
205	0x28069b70	7.472199e-15
206	0x286e3c39	1.3224713e-14
207	0x28a512ad	1.832678e-14
208	0x28cfe52a	2.3081e-14
209	0x28f27bec	2.692114e-14
210	0x2900adbc	2.85724e-14
211	0x290d2190	3.13374e-14
212	0x2910e02c	3.216886e-14
213	0x2910b300	3.212968e-14
214	0x28eb8137	2.6146279e-14
215	0x289ffd8d	1.7762506e-14
216	0x284e1f6d	1.14421115e-14
217	0x27e4e326	6.3528987e-15
218	0x274b02c7	2.8173415e-15
219	0x2690214f	1.0001036e-15
220	0x252d0ed1	1.5010378e-16
221	0x2363707b	1.2329513e-17
222	0x213ee493	6.467702e-19
223	0x00000000	0.0
224	0x00000000	0.0
225	0x00000000	0.0
226	0x1a08f034	2.8318175e-23
227	0x23af2a9b	1.8991582e-17
228	0x24b1f065	7.716876e-17
229	0x256fb5a3	2.0791486e-16
230	0x260a1221	4.7902937e-16
231	0x26d36f13	1.4671173e-15
232	0x27ad5fd5	4.8121047e-15
233	0x2832d40f	9.926968e-15
234	0x288470b3	1.470382e-14
235	0x28a5252d	1.8334802e-14
236	0x28bc741f	2.0922552e-14
237	0x28b00e31	1.954608e-14
238	0x289b6ea3	1.7256438e-14
239	0x28a80084	1.865197e-14
240	0x28cb98dc	2.260382e-14
241	0x28de8a25	2.4706862e-14
242	0x28c1e272	2.152551e-14
243	0x28a46dc1	1.8255256e-14
244	0x28705659	1.33414e-14
245	0x280df65a	7.880491e-15
246	0x278d18fc	3.916245e-15
247	0x26bb1778	1.2982093e-15
248	0x2588f303	2.375691e-16
249	0x23428a7c	1.0546086e-17
250	0x20db0761	3.7104926e-19
251	0x00000000	0.0
252	0x00000000	0.0
253	0x00000000	0.0
254	0x1f81c806	5.4964536e-20
255	0x24212189	3.4939715e-17

exp_avg f4 [10]
0	0x00000004	6e-45
1	0xb7314484	-1.0565975e-05
2	0xb7785131	-1.4800856e-05
3	0x377e8f88	1.5172998e-05
4	0x37479f02	1.1898346e-05
5	0xb668347e	-3.4601248e-06
6	0x00000004	6e-45
7	0x00000004	6e-45
8	0x00000004	6e-45
9	0x35b9f457	1.3854686e-06

exp_avg_sq f4 [10]
0	0x29a2f3ed	7.2365596e-14
1	0x31c5eb33	5.7601937e-09
2	0x31795fac	3.6288652e-09
3	0x31530b08	3.0710812e-09
4	0x32203807	9.325965e-09
5	0x32816c1a	1.5066735e-08
6	0x27a64abf	4.6155295e-15
7	0x2a01cbfe	1.1528276e-13
8	0x2a3694f6	1.6216528e-13
9	0x31cf7f30	6.0389524e-09

exp_avg f4 [10, 10]
0	0x80000004	-6e-45
1	0xb87eca23	-6.0746574e-05
2	0xb7d2252c	-2.505126e-05
3	0xb848c76f	-4.7869453e-05
4	0xb7d72bcb	-2.565039e-05
5	0xb813d2e7	-3.524395e-05
6	0x80000004	-6e-45
7	0x80000004	-6e-45
8	0x80000004	-6e-45
9	0xb85280fa	-5.018802e-05
10	0x00000004	6e-45
11	0x3919ab45	0.0001465502
12	0x388f559e	6.834719e-05
13	0x38fc0541	0.00012017275
14	0x3885e791	6.385067e-05
15	0x38ba644c	8.887853e-05
16	0x80000004	-6e-45
17	0x80000004	-6e-45
18	0x80000004	-6e-45
19	0x38eeb480	0.00011382345
20	0x80000004	-6e-45
21	0x390cbc81	0.00013421664
22	0x38a4d46e	7.8596975e-05
23	0x391f34e6	0.00015183128
24	0x38a5231d	7.8743535e-05
25	0x38db5e7d	0.000104603336
26	0x00000004	6e-45
27	0x00000004	6e-45
28	0x00000004	6e-45
29	0x38eb7a5b	0.00011228464
30	0x80000004	-6e-45
31	0xb9bedf89	-0.0003640617
32	0xb9465abf	-0.00018916557
33	0xb9abef5d	-0.00032794
34	0xb9320cfe	-0.00016980243
35	0xb96cd02d	-0.00022584265
36	0x00000000	0.0
37	0x00000000	0.0
38	0x00000004	6e-45
39	0xb994b57f	-0.00028363985
40	0x00000004	6e-45
41	0x385b4df7	5.228628e-05
42	0x386f4e43	5.7054927e-05
43	0x38d703bf	0.00010252697
44	0x384eaeb9	4.927695e-05
45	0x38908753	6.891661e-05
46	0x80000004	-6e-45
47	0x80000004	-6e-45
48	0x80000004	-6e-45
49	0x38218542	3.8509497e-05
50	0x80000004	-6e-45
51	0xb2ead049	-2.7335902e-08
52	0xb2aa3660	-1.9815332e-08
53	0xb3a031fb	-7.459672e-08
54	0xb3b9cbdc	-8.6518156e-08
55	0xb301c114	-3.0210757e-08
56	0x80000004	-6e-45
57	0x80000004	-6e-45
58	0x80000004	-6e-45
59	0xb4134ce4	-1.3718414e-07
60	0x00000004	6e-45
61	0x00000004	6e-45
62	0x00000004	6e-45
63	0x00000004	6e-45
64	0x00000004	6e-45
65	0x00000004	6e-45
66	0x00000004	6e-45
67	0x80000004	-6e-45
68	0x00000004	6e-45
69	0x00000004	6e-45
70	0x80000004	-6e-45
71	0x3987e88e	0.00025922473
72	0x38f7f0a0	0.00011822698
73	0x39728ce1	0.000231314
74	0x39045c60	0.00012622913
75	0x39172bc4	0.00014416786
76	0x80000004	-6e-45
77	0x80000004	-6e-45
78	0x80000004	-6e-45
79	0x396d3608	0.0002262221
80	0x00000004	6e-45
81	0xb8d12ad1	-9.973872e-05
82	0xb85bd3bd	-5.2410865e-05
83	0xb8dec3b1	-0.00010622235
84	0xb8701085	-5.7235844e-05
85	0xb88edeae	-6.812565e-05
86	0x00000004	6e-45
87	0x00000004	6e-45
88	0x80000004	-6e-45
89	0xb8bd3cb2	-9.023528e-05
90	0x00000000	0.0
91	0x00000000	0.0
92	0x00000000	0.0
93	0x00000000	0.0
94	0x00000000	0.0
95	0x00000000	0.0
96	0x00000000	0.0
97	0x00000000	0.0
98	0x00000000	0.0
99	0x00000000	0.0

exp_avg_sq f4 [10, 10]
0	0x28cd4b5f	2.2792259e-14
1	0x3398271e	7.085167e-08
2	0x32e62c66	2.6795714e-08
3	0x33ca4abc	9.419952e-08
4	0x32fc79f2	2.9392115e-08
5	0x332538d3	3.8468738e-08
6	0x22583b35	2.9304803e-18
7	0x240a4754	2.9984397e-17
8	0x289cdf66	1.7416363e-14
9	0x33897e14	6.402493e-08
10	0x2ac5cc0a	3.513581e-13
11	0x3468f6e2	2.1696499e-07
12	0x33b46875	8.400904e-08
13	0x34991005	2.8510127e-07
14	0x33b90abc	8.6166864e-08
15	0x33fcc827	1.1771072e-07
16	0x2658ba71	7.519273e-16
17	0x284be2fc	1.1317983e-14
18	0x2a1398a1	1.3109177e-13
19	0x34477c9f	1.8578656e-07
20	0x2abac887	3.317938e-13
21	0x356e1d28	8.8704337e-07
22	0x34b5e937	3.3883563e-07
23	0x359e7562	1.180608e-06
24	0x34b5310d	3.3749566e-07
25	0x35010495	4.806291e-07
26	0x249ddfc0	6.8466944e-17
27	0x261cfb34	5.4463816e-16
28	0x2a6375e3	2.020255e-13
29	0x35482d74	7.457195e-07
30	0x1fc8531c	8.484079e-20
31	0x35d620cc	1.5953788e-06
32	0x352421c7	6.1143913e-07
33	0x360da6cd	2.1107728e-06
34	0x3522cc74	6.064722e-07
35	0x3568fb3a	8.679232e-07
36	0x00000000	0.0
37	0x00000000	0.0
38	0x2210ee85	1.964191e-18
39	0x35b3a2bc	1.3383901e-06
40	0x2a24d3dd	1.4639631e-13
41	0x35d6a80e	1.5993153e-06
42	0x3525d949	6.178348e-07
43	0x360f5d20	2.1362866e-06
44	0x352513fe	6.149638e-07
45	0x356ba45d	8.77835e-07
46	0x240182cc	2.8083205e-17
47	0x26ae1abf	1.2080925e-15
48	0x29b1268c	7.867066e-14
49	0x35b4fb37	1.3484158e-06
50	0x283a8eb5	1.0356019e-14
51	0x2bc3ef43	1.3921992e-12
52	0x2be3a019	1.6173756e-12
53	0x2c5cdc07	3.138602e-12
54	0x2cfec5bc	7.241067e-12
55	0x2c6b3f48	3.3430637e-12
56	0x23d8868e	2.3475753e-17
57	0x260c353d	4.864441e-16
58	0x27606278	3.1139625e-15
59	0x2d4e77aa	1.1736315e-11
60	0x286ad4ff	1.30357956e-14
61	0x2929cdfe	3.7704208e-14
62	0x299be9af	6.9239204e-14
63	0x2958cf5a	4.8141483e-14
64	0x287e3b86	1.41127395e-14
65	0x29a34b20	7.251686e-14
66	0x1f576cff	4.561818e-20
67	0x203c1c95	1.5933676e-19
68	0x28344ba3	1.0008408e-14
69	0x2975fa64	5.4618107e-14
70	0x29cd601e	9.1205025e-14
71	0x35318a91	6.613928e-07
72	0x34877de5	2.523731e-07
73	0x356b5d7e	8.768037e-07
74	0x34877f31	2.5238253e-07
75	0x34c0c5a7	3.5906598e-07
76	0x22af9fd2	4.760306e-18
77	0x249ddddd	6.846375e-17
78	0x29990a99	6.796403e-14
79	0x3514b68d	5.539994e-07
80	0x2836702a	1.0127351e-14
81	0x34c32e84	3.6355425e-07
82	0x3414559a	1.3814716e-07
83	0x35017ac1	4.8234875e-07
84	0x3412ad86	1.3660437e-07
85	0x3453f7eb	1.9741098e-07
86	0x2467b217	5.0240988e-17
87	0x263e0471	6.592551e-16
88	0x27c57c7d	5.4813454e-15
89	0x34a37158	3.0443584e-07
90	0x00000000	0.0
91	0x00000000	0.0
92	0x00000000	0.0
93	0x00000000	0.0
94	0x00000000	0.0
95	0x00000000	0.0
96	0x00000000	0.0
97	0x00000000	0.0
98	0x00000000	0.0
99	0x00000000	0.0

exp_avg f4 [10]
0	0xb735a61f	-1.0827119e-05
1	0x37b26abe	2.126896e-05
2	0x37c7827e	2.3783414e-05
3	0xb844251f	-4.6764613e-05
4	0x371cab9c	9.3382805e-06
5	0xb1e6a0cd	-6.712162e-09
6	0x00000004	6e-45
7	0x38076e74	3.2289376e-05
8	0xb78c137c	-1.6698374e-05
9	0x00000000	0.0

exp_avg_sq f4 [10]
0	0x30eb1f12	1.7107331e-09
1	0x31b1ae8a	5.171221e-09
2	0x32b6d457	2.128415e-08
3	0x3323f465	3.817367e-08
4	0x33268458	3.8770253e-08
5	0x2b7b8ce7	8.9368655e-13
6	0x29033275	2.9131608e-14
7	0x3287fba0	1.5830494e-08
8	0x3215bf75	8.716474e-09
9	0x00000000	0.0
