lightning_logs/version_7/checkpoints/epoch=5-step=5159.ckpt (torch_old, 209116 bytes, 36 tensors)

encoder.0.weight f4 [10, 784]
0.008299347 -0.0111324405 0.014898522 0.019818395 -0.013578624 -0.0049434477 -0.0028833493 -0.010377377
-0.018778486 0.00022212097 0.0325993 0.008280188 -0.016146448 0.014140084 -0.033889882 0.007796126
-0.015306635 0.0034055882 -0.027305009 0.022131661 0.015421663 0.004080134 0.014123334 0.017640835
0.02318318 -0.024135383 -0.0050163143 -0.01995349 -0.024319416 -0.0152652655 -0.030543081 0.027986165
0.008182364 0.054828946 -0.10078144 -0.08774774 -0.0020438777 -0.015447808 -0.094941154 -0.097588
0.0038660753 0.009666786 0.0054123076 -0.016441524 -0.050660558 -0.049359214 0.053220045 0.038231835
0.011030442 -0.08605322 -0.013707015 0.081604734 -0.008250564 0.021759639 0.0002803973 0.022286795
0.023422876 -0.031851813 0.045855857 -0.115280114 0.07130186 -0.08926338 -0.017420338 0.019728709
-0.047712613 0.022552155 0.0075293826 0.0049294266 -0.03676265 -0.01099784 0.01724393 -0.006255506
-0.027610652 0.022751095 0.04212399 0.02012794 0.053444274 0.0639175 -0.012760528 -0.03413312
-0.038018238 -0.091285884 0.00912256 0.033900734 -0.021804921 -0.026499175 0.0016197414 -0.08043992
-0.06458845 -0.02342569 -0.0037960676 -0.018795902 0.016157018 0.0053036385 0.03540414 -0.024044782
-0.03470893 -0.019936955 -0.0039281743 0.023046942 0.037107684 0.043268405 0.01960643 0.060144708
0.015486157 -0.0034307651 0.04986925 0.01759792 0.09652782 0.010867783 0.095483236 -0.021583878
0.02057455 0.024298698 -0.14917722 0.0471008 0.043087095 -0.047529608 -0.03128094 -0.017654827
-0.024601884 -0.03245242 0.00831053 0.0006135126 -0.015252066 -0.006619198 0.021485776 0.03978595
0.06484563 0.078572355 0.06645751 0.041683823 0.026026422 0.0074142637 0.00777102 0.0042983047
0.0011845995 -0.05500315 -0.035007954 0.0007776627 -0.025897803 -0.033041295 0.05299029 -0.07564628
0.03609233 -0.0133871045 -0.02109163 -0.010590484 0.0047746506 -0.006264273 0.03180755 0.015562973
0.062133495 0.053909443 0.0879801 0.0957245 0.13133392 0.1299061 0.1295818 0.115995474
0.09067791 0.04318076 0.007707837 0.012335439 -0.03692358 -0.06870775 0.06819392 0.038425393
0.019718498 0.032371655 0.03221454 -0.055476986 -0.023539193 -0.023147646 -0.0041718786 -0.0023185345
-0.010802515 -0.020044114 0.0145482635 0.046479978 0.061737373 0.084194265 0.10252468 0.105081275
0.13587776 0.15415591 0.16228375 0.13848859 0.10850387 0.08610354 0.026414214 0.01360055
-0.03796067 -0.025249576 -0.036760375 -0.027199494 -0.06923394 -0.017153624 0.017849877 0.042983938
0.029344538 -0.013124538 0.0015831885 -0.021796875 -0.02934316 -0.008636044 -0.01024646 0.046378367
0.07046576 0.06257625 0.068286605 0.053165983 0.06561433 0.10105721 0.11887447 0.14304602
0.11262448 0.09636882 0.05081968 0.029319791 -0.021667488 -0.030035999 -0.013557239 -0.0112411855
-0.064921476 -0.19109628 -0.04957844 -0.011835791 0.0077172755 -0.018241113 -0.01937377 -0.02060563
-0.039366763 -0.043465972 -0.022662804 0.017405692 0.0623216 0.049493205 0.022469578 -0.009462553
-0.005873947 0.027443353 0.069881946 0.08670886 0.10833677 0.070765026 0.04916245 0.026582424
-0.03549339 -0.057335105 -0.035789058 -0.001996548 0.033557117 -0.17035902 -0.009299404 0.02139883
00000000: fcf9 073c d764 36bc ee18 743c 305a a23c
00000010: e178 5ebc a5fc a1bb 93f6 3cbb e005 2abc
00000020: 57d5 99bc 25e9 6839 d886 053d a0a9 073c
00000030: 8e45 84bc d0ab 673c 1ed0 0abd a576 ff3b
00000040: aec8 7abc 4a30 5f3b c1ae dfbc 754d b53c
00000050: 25ab 7c3c a5b2 853b 8e65 673c 8383 903c
00000060: a7ea bd3c 91b7 c5bc e55f a4bb 8075 a3bc
00000070: 8339 c7bc 2a1b 7abc 7c35 fabc 3e43 e53c
00000080: 520f 063c 5194 603d 8066 cebd 16b5 b3bd
00000090: 94f2 05bb ce18 7dbc 8270 c2bd 38dc c7bd
000000a0: fb5d 7d3b 7061 1e3c ba59 b13b 60b0 86bc
000000b0: 7281 4fbd e32c 4abd 43fd 593d fc98 1c3d
000000c0: 07b9 343c ac3c b0bd 6393 60bc 6220 a73d
000000d0: 602d 07bc 4541 b23c 4a02 9339 cc92 b63c
000000e0: 55e1 bf3c 0c77 02bd 5ad3 3b3d fb17 ecbd
000000f0: b606 923d b8cf b6bd 19b5 8ebc 1a9e a13c
00000100: 4d6e 43bd 4cbf b83c 0ab9 f63b 0787 a13b
00000110: 6f94 16bd 4930 34bc 2443 8d3c fdfa ccbb
00000120: bc2f e2bc 8160 ba3c 348a 2c3d 5ae3 a43c
00000130: 62e8 5a3d 2ee7 823d 8911 51bc 2ccf 0bbd
00000140: 03b9 1bbd 18f4 babd ca76 153c 7fdb 0a3d
00000150: 3ca0 b2bc cc14 d9bc 814d d43a afbd a4bd
00000160: f346 84bd 3ce7 bfbc 72c7 78bb ddf9 99bc
00000170: b95b 843c 25ca ad3b ee03 113d 90f9 c4bc
00000180: f32a 0ebd d352 a3bc eab7 80bb f1cc bc3c
00000190: 3afe 173d 363a 313d aa9d a03c 4c5a 763d
000001a0: a6b9 7d3c b0d6 60bb b343 4c3d 8329 903c
000001b0: 61b0 c53d c90e 323c b78c c33d acd0 b0bc
000001c0: f58b a83c 100e c73c eac1 18be c5ec 403d
000001d0: 187c 303d 68ae 42bd 7120 00bd dba0 90bc
000001e0: e489 c9bc d4ec 04bd e428 083c 22d4 203a
000001f0: cde3 79bc dbe5 d8bb f002 b03c 98f6 223d
00000200: c9cd 843d 8bea a03d e01a 883d a8bc 2a3d
00000210: 5d35 d53c 5af3 f23b 0aa4 fe3b cbd8 8c3b
00000220: 9044 9b3a fc4a 61bd 8064 0fbd 0fdc 4b3a
00000230: a127 d4bc 4f56 07bd 590c 593d 70ec 9abd
00000240: 8dd5 133d 9655 5bbc 5bc8 acbc b683 2dbc
00000250: ac74 9c3b 8844 cdbb a248 023d d7fb 7e3c
00000260: b17f 7e3d 26d0 5c3d e92e b43d 350b c43d
00000270: 667c 063e 1b06 053e 17b1 043e 098f ed3d
00000280: 57b5 b93d 4fde 303d 0692 fc3b 951a 4a3c
00000290: 2e3d 17bd a6b6 8cbd 41a9 8b3d f263 1d3d
000002a0: b088 a13c 2498 043d 65f3 033d d63b 63bd
000002b0: 44d5 c0bc 22a0 bdbc 41b4 88bb 8ef2 17bb
000002c0: 08fd 30bc 8e33 a4bc d75b 6e3c ca61 3e3d
000002d0: 54e0 7c3d 0b6e ac3d 76f8 d13d da34 d73d
000002e0: 8a23 0b3e 0cdb 1d3e b62d 263e f4cf 0d3e
000002f0: 4737 de3d 0e57 b03d 9f62 d83c d7d4 5e3c
00000300: a67c 1bbd 33d8 cebc 0c92 16bd 79d1 debc
00000310: 86ca 8dbd c285 8cbc e839 923c ed0f 303d
00000320: f563 f03c 4d08 57bc fe82 cf3a 5c8f b2bc
00000330: 1161 f0bc 327e 0dbc c5e0 27bc 3ef7 3d3d
00000340: 5a50 903d fa27 803d d9d9 8b3d 93c4 593d
00000350: ce60 863d 15f7 ce3d 7574 f33d a87a 123e
00000360: aaa7 e63d 045d c53d 4c28 503d 0f30 f03c
00000370: 0480 b1bc 0e0e f6bc 2f1f 5ebc f32c 38bc
00000380: 8df5 84bd beae 43be c312 4bbd e8ea 41bc
00000390: 33e1 fc3b 636e 95bc beb5 9ebc 23cd a8bc
000003a0: 0b3f 21bd 6009 32bd 58a7 b9bc 6296 8e3c
000003b0: ef44 7f3d 63b9 4a3d 1f12 b83c d308 1bbc
000003c0: 3d7a c0bb e2d0 e03c 441e 8f3d 6a94 b13d
000003d0: abdf dd3d 41ed 903d 915e 493d 62c3 d93c
000003e0: 8461 11bd 37d8 6abd 8c97 12bd 84d8 02bb
000003f0: 3073 093d 9872 2ebe 875c 18bc 994c af3c

encoder.0.bias f4 [10]
0.012374711 -0.026526323 -0.0220875 0.24689448 0.0027237546 -0.1152331 0.01974041 0.0013805137
-0.03026533 -0.02890788
00000000: 4dbf 4a3c bb4d d9bc d8f0 b4bc e8d1 7c3e
00000010: 0581 323b 55ff ebbd a4b6 a13c 5af2 b43a
00000020: ffee f7bc 38d0 ecbc

encoder.2.weight f4 [10, 10]
0.2456463 0.23165207 -0.254898 0.17539842 -0.12862839 0.3747138 -0.018997036 -0.03961259
-0.2655373 0.08950272 0.048656166 0.20019574 0.060679477 0.110321656 -0.050219294 0.0818754
0.22549227 -0.057822615 -0.19647893 0.13476665 0.31969732 0.22508161 0.23373522 0.19631152
0.19258806 -0.016049014 -0.2515284 -0.28561392 0.28449696 0.1419727 0.11753231 0.15386395
0.2749401 0.39253053 0.025217615 -0.28313264 0.41434544 0.13036571 0.12671112 -0.19717734
0.010379011 -0.16025594 0.2236737 -0.33002123 -0.2267539 0.12914589 -0.3206014 -0.08721592
-0.12345677 0.24329507 -0.11549538 -0.04577893 -0.1635955 0.1568462 -0.050352346 0.117212534
0.075324275 0.08765468 0.24495293 -0.1611924 -0.3234056 0.14951393 -0.11247083 0.39110562
0.19209878 -0.072572164 -0.17372209 0.175796 -0.0147003215 -0.18249014 -0.24871062 -0.22151111
0.009104422 0.2973033 -0.059940662 0.19459242 0.19791335 -0.075552836 0.0044003897 0.041095432
0.3386071 0.18124978 -0.21813537 -0.18611087 -0.17521396 0.06384615 0.2904724 0.022328049
0.092264816 -0.07720685 0.29386938 0.0073263547 0.078190394 0.20195208 -0.12830754 -0.056332406
-0.14254306 -0.23609316 -0.14868549 -0.101837225
00000000: b48a 7b3e 3336 6d3e fe81 82be a59b 333e
00000010: 29b7 03be 7dda bf3e ac9f 9bbc d040 22bd
00000020: 81f4 87be 344d b73d b04b 473d 1d00 4d3e
00000030: 0b8b 783d 52f0 e13d bfb2 4dbd 4aae a73d
00000040: 72e7 663e 68d7 6cbd c631 49be 4500 0a3e
00000050: 5eaf a33e cb7b 663e 4958 6f3e e305 493e
00000060: ce35 453e 3979 83bc 55c8 80be fd3b 92be
00000070: 96a9 913e 4b61 113e c8b4 f03d 838e 1d3e
00000080: f3c4 8c3e c3f9 c83e 2c95 ce3c c3f6 90be
00000090: 1625 d43e 977e 053e 8fc0 013e dbe8 49be
000000a0: ba0c 2a3c 221a 24be b80a 653e 8bf8 a8be
000000b0: 2d32 68be d23e 043e de25 a4be 439e b2bd
000000c0: e7d6 fcbd 5822 793e d788 ecbd b082 3bbd
000000d0: 9485 27be 4a9c 203e 433e 4ebd 200d f03d
000000e0: 9d43 9a3d 4c84 b33d f1d4 7a3e 9f0f 25be
000000f0: 6b95 a5be 2e1a 193e 1b57 e6bd ff3e c83e
00000100: 8bb5 443e b7a0 94bd 34e4 31be de03 343e
00000110: 9ed9 70bc b2de 3abe ffad 7ebe cfd3 62be
00000120: b72a 153c 2338 983e 5784 75bd 3c43 473e
00000130: cca9 4a3e 72bb 9abd 2531 903b af53 283d
00000140: e95d ad3e 8b99 393e e15e 5fbe d993 3ebe
00000150: 4a6b 33be c5c1 823d ccb8 943e 50e9 b63c
00000160: 56f5 bc3d a01e 9ebd 0c76 963e eb11 f03b
00000170: 4922 a03d 87cc 4e3e 0d63 03be cfbc 66bd
00000180: cff6 11be 68c2 71be 0241 18be 0990 d0bd

encoder.2.bias f4 [10]
0.07401934 -0.08687701 0.31860664 0.2205102 0.11945193 0.22840254 0.06783042 0.045932423
-0.15363072 -0.0066094403
00000000: 7497 973d 93ec b1bd 6920 a33e 6dcd 613e
00000010: 37a3 f43d 5be2 693e adea 8a3d a323 3c3d
00000020: 5f51 1dbe 0194 d8bb

encoder.4.weight f4 [10, 10]
-0.21982026 -0.3681347 0.2804022 0.22785677 -0.10449987 0.17203376 -0.30471936 0.20173794
-0.2839401 0.18577662 -0.17315699 -0.22349247 0.3622138 -0.2629816 0.16085473 -0.098387614
0.10166527 0.045301482 -0.12450276 0.2763677 0.05720478 -0.18670633 -0.11754213 -0.2626291
0.15725946 0.24586286 -0.11393256 0.38986295 -0.16868691 0.021364177 0.25019833 0.24239144
0.07923267 -0.34012708 0.14823692 -0.09590507 -0.46929792 0.02366773 -0.21647243 0.09315306
0.11480758 0.12757026 0.19512802 -0.40679872 0.019793397 -0.31853878 0.40464497 -0.23306437
-0.14398468 0.1049503 -0.24529248 0.21814837 0.15689753 -0.09617545 -0.17964093 0.05519578
-0.47403628 0.318774 -0.19040583 -0.57246727 -0.22491671 -0.34823552 0.04539865 -0.11389949
0.24735123 -0.16620675 -0.24883953 -0.41658527 0.08021322 -0.109886296 -0.0037522232 -0.16973083
0.07096638 -0.2223066 -0.01012419 0.16064069 0.32329544 -0.025079582 0.22600363 0.044473305
-0.28437322 0.10955081 0.124752164 -0.28273255 -0.2068541 0.015820647 -0.7019975 0.22798683
0.06716211 0.13442902 -0.2893633 0.048596416 -0.35051927 0.036136378 -0.16424598 0.07254804
0.32073802 0.083187506 0.016530888 -0.09396224
00000000: 9018 61be 277c bcbe e190 8f3e 4953 693e
00000010: 0704 d6bd 9e29 303e 2d04 9cbe 6494 4e3e
00000020: 9960 91be 3a3c 3e3e 1150 31be 36db 64be
00000030: 1674 b93e 86a5 86be 1ab7 243e 727f c9bd
00000040: e235 d03d 0c8e 393d 4efb febd 1180 8d3e
00000050: 8f4f 6a3d f22f 3fbe eeb9 f0bd 5277 86be
00000060: a008 213e 79c3 7b3e 7955 e9bd 1e9c c73e
00000070: 43bc 2cbe ed03 af3c ff19 803e 7635 783e
00000080: bd44 a23d 2325 aebe 6bcb 173e e169 c4bd
00000090: d147 f0be d4e2 c13c f3aa 5dbe 08c7 be3d
000000a0: 3d20 eb3d c7a1 023e a4cf 473e ec47 d0be
000000b0: c325 a23c 8417 a3be a02d cf3e 6da8 6ebe
000000c0: b870 13be 2ff0 d63d f42d 7bbe 4962 5f3e
000000d0: bfa9 203e a2f7 c4bd cbf3 37be f814 623d
000000e0: e2b4 f2be 5936 a33e bff9 42be 378d 12bf
000000f0: 9150 66be ed4b b2be eff3 393d 2344 e9bd
00000100: a449 7d3e 1a32 2abe cacf 7ebe aa4a d5be
00000110: d446 a43d 110c e1bd dce7 75bb ebcd 2dbe
00000120: d256 913d 57a4 63be eedf 25bc fe7e 243e
00000130: fb86 a53e b273 cdbc 7f6d 673e a429 363d
00000140: 5e99 91be 2d5c e03d 107e ff3d 52c2 90be
00000150: 90d1 53be 4d9a 813c 1cb6 33bf 6175 693e
00000160: 4a8c 893d c3a7 093e 6d27 94be 090d 473d
00000170: 4377 b3be bd03 143d 1930 28be 1194 943d
00000180: c637 a43e 365e aa3d c96b 873c 466f c0bd

encoder.4.bias f4 [10]
0.15784794 -0.36375675 -0.22963342 0.20327835 0.12921919 0.08539253 0.142251 -0.48207027
0.40173483 0.116196275
00000000: e4a2 213e 533e babe 0625 6bbe 3328 503e
00000010: 0952 043e 47e2 ae3d 3faa 113e ead1 f6be
00000020: 30b0 cd3e 50f8 ed3d

decoder.0.weight f4 [10, 10]
0.5083527 -0.06739804 -0.46414044 0.05939515 -0.13560607 0.00764991 -0.112492196 -0.3932721
0.30816016 -0.066152886 -0.28751957 0.3800387 0.17172894 -0.2861818 0.33215895 0.036010344
-0.034037214 0.3011029 0.054664403 -0.011900359 0.00019733461 0.14481404 -0.2259811 -0.82289493
0.012206046 -0.094194524 -0.3081539 -0.17133471 -0.027662005 0.13359599 -0.19500495 -0.011176384
0.24575034 0.01715498 0.0022000703 0.32985252 0.12194218 -0.11104915 -0.22298272 -0.17435662
-0.1471623 -0.2338522 0.33535326 0.16596201 -0.27116692 0.25131357 -0.24306163 -0.17274553
0.020559244 0.027684849 0.11192428 0.23861362 -0.15485667 -0.23108922 -0.08842329 -0.028308634
0.16648626 0.06978534 0.08298269 0.17917772 -0.21469523 0.063801415 -0.13586202 -0.05331888
-0.041553475 -0.28577906 0.1620096 -0.06012695 -0.40464634 0.2900083 -0.24275938 -0.31219453
-0.4383117 0.2108781 -0.349784 -0.012378225 0.000106169704 0.27820188 -0.13585709 0.19802456
0.17562385 0.088845305 0.2682572 -0.24859083 -0.32448444 -0.19674973 -0.37032923 -0.29241604
-0.17249307 -0.30675834 -0.2489841 -0.09110181 -0.22463156 0.1980078 0.079636 -0.25372332
-0.039691426 0.16337605 0.062184334 -0.44538924
00000000: 6723 023f fc07 8abd d1a3 edbe 5448 733d
00000010: 51dc 0abe 19ac fa3b 4f62 e6bd f65a c9be
00000020: 2bc7 9d3e 2a7b 87bd c435 93be 6f94 c23e
00000030: b6d9 2f3e 6c86 92be bd10 aa3e 957f 133d
00000040: 9b6a 0bbd 292a 9a3e c8e7 5f3d b9f9 42bc
00000050: 9beb 4e39 224a 143e 9767 67be 3ea9 52bf
00000060: defb 473c 0fe9 c0bd 59c6 9dbe 5e72 2fbe
00000070: 6e9b e2bc 63cd 083e 61af 47be 271d 37bc
00000080: faa5 7b3e 9a88 8c3c 0e2f 103b 6ee2 a83e
00000090: d2bc f93d bd6d e3bd 9555 64be 8b8a 32be
000000a0: b7b1 16be f376 6fbe 6cb3 ab3e f2f1 293e
000000b0: 64d6 8abe 2cac 803e 26e5 78be 34e4 30be
000000c0: dc6b a83c 56cb e23c 8f38 e53d 2157 743e
000000d0: bf92 1ebe a7a2 6cbe 4517 b5bd 82e7 e7bc
000000e0: 607b 2a3e 9eeb 8e3d d4f2 a93d 5d7a 373e
000000f0: 11d9 5bbe 51aa 823d 6a1f 0bbe e664 5abd
00000100: fa33 2abd a251 92be d8e5 253e ad47 76bd
00000110: ce2d cfbe f87b 943e ea95 78be f6d7 9fbe
00000120: 646a e0be 6ef0 573e e316 b3be 0ace 4abc
00000130: 6da7 de38 7a70 8e3e 1f1e 0bbe f3c6 4a3e
00000140: bdd6 333e 87f4 b53d 0259 893e 988e 7ebe
00000150: d322 a6be c378 49be cb9b bdbe 8eb7 95be
00000160: 06a2 30be 6e0f 9dbe b0f5 7ebe 9693 babd
00000170: d105 66be 8fc2 4a3e 3318 a33d 06e8 81be
00000180: 7a93 22bd 0d4c 273e 00b5 7e3d 0f0a e4be

decoder.0.bias f4 [10]
-0.046104483 -0.10655477 0.2399774 -0.29945555 0.21058558 -0.13965438 0.19140048 0.07235379
-0.049724616 0.2838761
00000000: 0ed8 3cbd 6339 dabd a3bc 753e 3d52 99be
00000010: bfa3 573e 8f01 0fbe 7dfe 433e 392e 943d
00000020: 0aac 4bbd 3558 913e

decoder.2.weight f4 [10, 10]
0.16722563 0.15326726 0.08922632 0.2614935 0.26223388 -0.091876835 -0.21276689 0.33381534
-0.031802017 0.0004770715 -0.412728 -0.083279625 0.024641223 -0.052250132 0.3210698 0.007520172
0.23299941 -0.25242597 0.12160229 0.35788235 -0.07701356 -0.2516722 0.116836116 -0.2567286
-0.06409738 0.11376363 -0.2540103 -0.053824782 -0.19216356 -0.25636488 0.011951653 0.17687242
-0.21571073 -0.19757374 -0.17964286 -0.27531427 -0.055399086 0.11938755 0.26333836 0.34078646
0.21870638 -0.17735891 0.009323783 0.17676525 -0.2755734 -0.21681422 -0.29160532 -0.12618846
-0.25984126 -0.19875503 0.2998241 0.0011359196 0.22106293 0.036844153 -0.28294268 -0.2848604
0.023304863 -0.2705992 0.16611929 0.12578703 0.06971868 -0.24155833 0.0052989568 0.0549856
-0.2164741 0.05377024 0.12579875 -0.059747864 -0.027815359 -0.07780366 -0.055443633 -0.044686772
0.17642446 -0.19317219 -0.29073435 -0.05108582 0.23480043 0.3803588 -0.015448497 0.049036626
-0.033194423 0.16605975 -0.05254866 0.16337548 -0.038310133 0.2527458 -0.020555463 0.31490877
-0.0717923 -0.31038198 -0.20186597 0.11363371 0.08507774 0.34208974 0.058565453 0.13764821
0.1647113 -0.023107776 0.2922447 -0.20211239
00000000: 323d 2b3e 18f2 1c3e 4abc b63d 7ae2 853e
00000010: 8543 863e ec29 bcbd 90df 59be d8e9 aa3e
00000020: d542 02bd 741f fa39 1651 d3be 828e aabd
00000030: 64dc c93c 3c04 56bd 4363 a43e c66b f63b
00000040: 6697 6e3e fa3d 81be 9f0a f93d 5b3c b73e
00000050: 49b9 9dbd 2edb 80be c647 ef3d ee71 83be
00000060: 7d45 83bd e8fc e83d a30d 82be 6077 5cbd
00000070: 86c6 44be 4242 83be ded0 433c 0b1e 353e
00000080: 46e3 5cbe c550 4abe 4cf4 37be fef5 8cbe
00000090: 27ea 62bd 7681 f43d 49d4 863e 907b ae3e
000000a0: 91f4 5f3e 939d 35be c8c2 183c f301 353e
000000b0: f517 8dbe 8c04 5ebe 4b4d 95be 8c37 01be
000000c0: ea09 85be 7086 4bbe 8b82 993e 23e3 943a
000000d0: 525e 623e e5e9 163d dddd 90be 39d9 91be
000000e0: d7e9 be3c fa8b 8abe 2d1b 2a3e 51ce 003e
000000f0: abc8 8e3d 115b 77be dfa2 ad3b 9538 613d
00000100: 63ab 5dbe 2f3e 5c3d 63d1 003e 2dba 74bd
00000110: 09dd e3bc 8657 9fbd dd18 63bd 7a09 37bd
00000120: 9da8 343e eece 45be 22db 94be 5d3f 51bd
00000130: 866f 703e 63be c23e b11b 7dbc a1da 483d
00000140: e0f6 07bd 910b 2a3e 443d 57bd e74b 273e
00000150: 16eb 1cbd e667 813e ee63 a8bc b93b a13e
00000160: d707 93bd 63ea 9ebe f4b5 4ebe cab8 e83d
00000170: 3d3d ae3d 6326 af3e 54e2 6f3d a7f3 0c3e
00000180: 14aa 283e 854c bdbc 19a1 953e 8df6 4ebe

decoder.2.bias f4 [10]
-0.017832719 0.12011683 0.01320698 0.0140184155 -0.015619419 0.06658071 -0.14430088 0.15423918
-0.2599825 0.12719463
00000000: ec15 92bc d0ff f53d 1762 583c 7fad 653c
00000010: 97e8 7fbc 785b 883d 9cc3 13be e0f0 1d3e
00000020: 6d1c 85be 4f3f 023e

decoder.4.weight f4 [784, 10]
-0.018537372 -0.032691535 -0.020680929 0.034372874 0.30842817 -0.025130838 -0.018453162 -0.0007712059
0.03253144 0.03553171 -0.051036693 -0.09019666 -0.17876512 0.096189275 -0.02432538 -0.06938869
0.24107927 -0.00039438505 -0.27744874 0.100359 0.037222303 0.06534269 0.23175597 -0.069769286
0.24016607 0.050623752 -0.16297671 0.00051280117 0.085926704 -0.07257967 -0.026207957 -0.04589279
0.2187607 0.048538975 0.09575763 -0.03553818 -0.1922763 -0.00057593564 -0.2656879 0.05041573
0.030565284 0.053548176 0.050087012 -0.056903746 0.024567736 0.041497555 -0.13932653 0.000568548
-0.14243908 -0.059132043 0.0704261 0.12432393 -0.28709593 -0.13248114 0.074001774 0.096115336
-0.18113573 0.00064724736 -0.057985853 -0.1380598 0.038705137 0.067954175 -0.085580505 -0.07256601
-0.23324353 0.052660786 0.1755554 0.0005261857 -0.038785834 -0.07550691 0.08749298 0.15458933
0.22363575 -0.16476396 0.2588948 0.119484715 -0.25476444 0.00064922584 0.109651685 -0.1717038
-0.032392412 -0.056858096 -0.2596339 0.06075298 -0.30078733 -0.04404087 0.0077443044 -0.00040863015
0.26893654 0.06316734 0.0400877 0.07039891 -0.30837193 -0.07518576 -0.12158091 0.05454755
0.123116516 0.0005323897 0.19737795 -0.07823882 -0.00086392014 -0.0015293644 -0.2591825 0.001588106
-0.29317662 -0.0011796677 -0.02914856 -3.2752014e-05 0.2044368 0.0016475699 0.0038600634 0.0068225185
0.2655545 -0.0070530637 0.24975693 0.0052092453 0.13615547 0.00016343343 -0.13908727 -0.007309381
-0.043704245 -0.07684247 0.094482824 0.08215777 0.0818387 -0.05952094 0.16838586 -0.00052756805
0.11717647 0.08551648 0.026410611 0.046573125 -0.20381063 -0.04967079 -0.028722657 0.035662062
0.06524465 0.00029916628 -0.12191035 -0.051818248 -0.09284939 -0.16401424 -0.049221367 0.17465912
-0.2711259 -0.1268714 -0.24963604 -0.0006423448 -0.029007686 0.18203092 0.0528633 0.09321691
-0.11846657 -0.09965264 -0.20910081 0.072069235 0.01907626 0.00052684225 0.22718719 -0.103756085
0.018767087 0.032952428 0.30236194 -0.034623954 -0.09159924 0.025410412 -0.1930537 0.0006321886
-0.29304293 -0.03582648 -0.0432318 -0.07613609 0.28448918 0.08151006 -0.12520204 -0.058894172
0.30654845 -0.00043207034 -0.25257057 0.08482447 0.005829975 0.010324931 0.21755669 -0.010670929
0.04156529 0.007849774 0.22131428 0.00023745559 0.030614268 -0.01107125 0.0074647767 0.013031361
0.23925158 -0.013513766 0.22488709 0.010030799 -0.31408942 0.0003390896 0.17649022 -0.014027381
0.019107778 0.033699542 0.31141612 -0.03604715 0.082040414 0.026007697 -0.3001864 0.00018355754
-0.23091526 -0.037547857 -0.015245354 -0.02676446 0.17087206 0.028128132 -0.2537107 -0.020630766
0.13934274 -0.0005055066 -0.25180614 0.029106827 -0.026448013 -0.046297807 0.17925209 0.04908347
0.26526567 -0.0358695 0.034429647 -0.00050753885 -0.030539967 0.050972484 -0.003279854 -0.0057390146
0.18551958 0.0060243346 -0.017566295 -0.004430233 -0.07855859 -0.000133413 0.118419014 0.0062365076
0.046816483 0.0827024 -0.035069503 -0.088276096 -0.1381186 0.06374764 -0.20425981 0.00035844196
-0.2166816 -0.09204408 -0.0006712117 -0.0012078761 0.2676851 0.0012580578 -0.050779413 -0.0009376127
00000000: b0db 97bc 8fe7 05bd 0d6b a9bc 92ca 0c3d
00000010: 4cea 9d3e 30df cdbc 162b 97bc c02a 4aba
00000020: b03f 053d b389 113d da0b 51bd 07b9 b8bd
00000030: 340e 37be e2fe c43d 0546 c7bc a81b 8ebd
00000040: 7cdd 763e 77c5 ceb9 c30d 8ebe 0589 cd3d
00000050: 6a76 183d 63d2 853d 7051 6d3e 33e3 8ebd
00000060: 18ee 753e da5a 4f3d 5ee3 26be 816d 063a
00000070: 57fa af3d a6a4 94bd 12b2 d6bc 14fa 3bbd
00000080: ce02 603e ced0 463d 941c c43d 7c90 11bd
00000090: 14e4 44be 63fa 16ba 3f08 88be b980 4e3d
000000a0: 0c64 fa3c 5555 5b3d 0a28 4d3d e713 69bd
000000b0: 4742 c93c 57f9 293d 9dab 0ebe 9c0a 153a
000000c0: 8ddb 11be 7134 72bd 8f3b 903d 8b9d fe3d
000000d0: 3dfe 92be 23a9 07be 3e8e 973d 1ed8 c43d
000000e0: a57b 39be 09ac 293a 9382 6dbd 8c5f 0dbe
000000f0: 4789 1e3d 8f2b 8b3d d544 afbd 7d9d 94bd
00000100: 64d7 6ebe d6b2 573d cbc4 333e b9ef 093a
00000110: e5dd 1ebd 5ea3 9abd 852f b33d aa4c 1e3e
00000120: c500 653e e2b7 28be dc8d 843e 67b4 f43d
00000130: 7c70 82be cf30 2a3a 1091 e03d 1fd3 2fbe
00000140: e8ad 04bd 09e4 68bd bcee 84be 1ed8 783d
00000150: cc00 9abe 3364 34bd efc3 fd3b 693d d6b9
00000160: 0db2 893e e15d 813d 0033 243d 4e2d 903d
00000170: ede2 9dbe fefa 99bd 6aff f8bd 406d 5f3d
00000180: 8324 fc3d 1190 0b3a 721d 4a3e ad3b a0bd
00000190: b378 62ba f474 c8ba 92b3 84be ff27 d03a
000001a0: 3f1b 96be 149f 9aba f6c8 eebc 355f 09b8
000001b0: e157 513e 46f3 d73a 1ef9 7c3b 6f8f df3b
000001c0: c2f6 873e 631d e7bb 48c0 7f3e 51b2 aa3b
000001d0: 576c 0b3e 545f 2b39 e56c 0ebe 8883 efbb
000001e0: 3903 33bd 965f 9dbd 3680 c13d 5542 a83d
000001f0: 0c9b a73d 3bcc 73bd 586d 2c3e 7e4c 0aba
00000200: 38fa ef3d 4423 af3d 115b d83c 76c3 3e3d
00000210: bcb3 50be 9973 4bbd c74b ebbc 6212 123d
00000220: fd9e 853d 6bd9 9c39 22ac f9bd 5f3f 54bd
00000230: d227 bebd 59f3 27be 589c 49bd d7d9 323e
00000240: 04d1 8abe 94ea 01be 97a0 7fbe 0863 28ba
00000250: 87a1 edbc 5066 3a3e 3087 583d 82e8 be3d
00000260: 9a9e f2bd af16 ccbd 861e 56be 0999 933d
00000270: d145 9c3c c91b 0a3a c2a3 683e 127e d4bd
00000280: 6fbd 993c 20f9 063d 2fcf 9a3e d9d1 0dbd
00000290: 6298 bbbd 7f29 d03c deaf 45be 75b9 253a
000002a0: b909 96be c9be 12bd d413 31bd 3ded 9bbd
000002b0: 91a8 913e bfee a63d f734 00be 043b 71bd
000002c0: ebf3 9c3e 8087 e2b9 ee50 81be 74b8 ad3d
000002d0: 6009 bf3b e629 293c 2ec7 5e3e 1fd5 2ebc
000002e0: 5e40 2a3d 579c 003c 36a0 623e 80fd 7839
000002f0: c6ca fa3c 3064 35bc 169b f43b 7d81 553c
00000300: 5efe 743e d868 5dbc cd48 663e 3858 243c
00000310: 54d0 a0be d6c7 b139 dab9 343e 1ad3 65bc
00000320: ea87 9c3c 8808 0a3d ef71 9f3e 2da6 13bd
00000330: ce04 a83d 180e d53c 08b2 99be 5a79 4039
00000340: 0d75 6cbe c8cb 19bd a6c7 79bc 2441 dbbc
00000350: 16f9 2e3e f86c e63c 5ee6 81be da01 a9bc
00000360: ddaf 0e3e f983 04ba bcec 80be 7171 ee3c
00000370: 81a9 d8bc c5a2 3dbd dc8d 373e c00b 493d
00000380: e7d0 873e e6eb 12bd 1a06 0d3d 5b0c 05ba
00000390: f42e fabc 86c8 503d d2f2 56bb 580e bcbb
000003a0: d8f8 3d3e c867 c53b 31e7 8fbc 7d2b 91bb
000003b0: 53e3 a0bd c8e4 0bb9 ab85 f23d 9e5b cc3b
000003c0: a4c2 3f3d e05f a93d 0aa5 0fbd 19ca b4bd
000003d0: f66e 0dbe 1f8e 823d 7c29 51be 44ed bb39
000003e0: c8e1 5dbe 9b81 bcbd 41f4 2fba 9951 9eba
000003f0: 050e 893e 6ae5 a43a 13fe 4fbd 20ca 75ba

decoder.4.bias f4 [784]
0.011161655 0.030720226 -0.022731397 0.015704736 -0.01844944 -0.043073297 -0.02371113 -0.053192012
0.019707834 -0.024571998 0.00051637716 -0.0022770278 0.026842888 -0.016030062 0.056162547 -0.032297168
-0.011249194 0.02646206 -0.0033879117 -0.0043780375 -0.01162998 0.009153661 0.015881417 0.0019632818
-0.028283775 0.0004109431 -0.0065508126 -0.018326866 -0.010103652 0.0042679273 -0.0016203861 -0.023958663
-0.0042224163 -0.034865327 0.045255825 0.005748182 -0.002842352 -0.0013406314 -0.013134048 -0.01632039
0.011540793 0.053225093 0.006871851 -0.034284674 0.013355356 -0.0067136716 0.014048258 0.011595539
0.017699925 -0.023070268 -0.0071838587 0.011718504 0.015255132 0.027452992 0.004689095 -0.021916613
0.03128373 -0.008355493 -0.015744718 0.017479941 0.0077694505 -0.0033353386 0.0062634614 0.0012964696
-0.023179315 0.0026880146 0.03770389 0.03908843 0.052088577 0.050284848 0.018078059 0.06409439
0.06376825 0.038534917 0.05913442 0.038728528 0.06178029 0.007219317 0.0017765332 -0.001950549
0.014002579 0.003070927 0.016642481 -0.019748706 0.031959135 -0.016346352 0.022642484 -0.004663385
-0.008880681 0.006081867 0.010206273 0.026213516 0.008587236 0.03737907 0.07763176 0.11598951
0.11223325 0.16646847 0.121368945 0.19154106 0.12149042 0.058680348 0.11589517 0.11881152
0.07955617 -0.011388054 0.019812144 0.018915055 -0.0043909927 -0.0018536161 0.011087294 0.0017113949
-0.015233804 0.004496735 0.0187127 -0.0077513745 0.02138164 -0.044435836 -0.0252445 -0.010667029
0.017788058 0.06889218 0.08862331 0.18595573 0.21318549 0.23797739 0.16807391 0.113958225
0.035436176 0.0016356243 0.042693753 0.0463286 0.080953 0.017938253 0.053728968 0.0640638
-0.0033245038 -0.054359566 0.00013935898 0.013202068 0.017118841 -0.012297266 -0.013212844 6.574691e-05
0.0045445864 0.0016160653 0.032816403 0.033177707 0.09587291 0.085815504 0.16926984 0.199882
0.15480176 0.014463612 -0.026242502 -0.13377734 -0.14697005 -0.09686277 -0.21168587 -0.056035575
-0.011026187 -0.011858924 0.043847237 0.006946712 0.00020087846 0.035999995 0.003516767 0.032135382
0.0054766117 -0.021664893 0.014045192 -0.0003639457 -0.00603167 0.00091897324 0.02809883 0.08366787
0.13854069 0.1548174 0.14423917 -0.020552803 -0.02615818 -0.12969407 -0.22984499 -0.28702232
-0.21036892 -0.30924213 -0.22761197 -0.24152394 -0.14792113 -0.013893778 -0.056590077 0.056848798
0.04848844 -0.0031984742 0.016283419 0.006587994 -0.005752594 -0.01619065 -0.03447691 -0.0068366816
0.044813897 0.041672163 0.07939309 0.1356553 0.12737745 0.080706924 0.079965234 -0.017543066
-0.15414616 -0.18599541 -0.25771347 -0.21227166 -0.18133672 -0.3093407 -0.294969 -0.17177741
-0.17680082 -0.10390932 -0.03833211 0.02872002 0.043806948 -0.01670023 -0.017335406 0.001004051
-0.011994984 0.0039509167 0.00326914 -0.011414129 0.047764506 0.048622973 0.0802987 0.12014267
0.24456777 0.1246503 0.017280249 -0.07099536 -0.15167105 -0.12819554 -0.118024245 -0.036771134
-0.0067125787 0.03149697 -0.09843378 -0.12567194 -0.10305657 -0.07443515 -0.03906639 0.00092498015
0.020010237 0.06453148 -0.021879341 -0.018369853 -0.010777588 -0.007928672 0.0008445323 -0.043073017
00000000: 60df 363c fca8 fb3c 3237 babc 38a7 803c
00000010: 4823 97bc a06d 30bd d83d c2bc dedf 59bd
00000020: 5372 a13c 374b c9bc 7c5d 073a 303a 15bb
00000030: 9ee5 db3c 7a51 83bc b30a 663d 094a 04bd
00000040: 8a4e 38bc f6c6 d83c ba07 5ebb a475 8fbb
00000050: ac8b 3ebc 3df9 153c bf19 823c 67aa 003b
00000060: 60b3 e7bc d973 d739 33a8 d6bb 3922 96bc
00000070: ca89 25bc f8d9 8b3b 2363 d4ba f544 c4bc
00000080: 325c 8abb f2ce 0ebd 2c5e 393d 3f5b bc3b
00000090: c146 3abb 20b8 afba 3130 57bc 57b2 85bc
000000a0: 9815 3d3c 8e02 5a3d 442d e13b 166e 0cbd
000000b0: 6cd0 5a3c 5cfe dbbb aa2a 663c 37fb 3d3c
000000c0: 6fff 903c dcfd bcbc 9366 ebbb f8fe 3f3c
000000d0: a9f0 793c 19e5 e03c fba6 993b 788a b3bc
000000e0: 5e23 003d 7ae5 08bc 11fb 80bc 1832 8f3c
000000f0: e096 fe3b b295 5abb b93d cd3b 4dee a93a
00000100: 8ce2 bdbc 6729 303b 656f 1a3d 311b 203d
00000110: d55a 553d 7cf7 4d3d 7018 943c eb43 833d
00000120: ee98 823d cad6 1d3d ef36 723d cea1 1e3d
00000130: 540d 7d3d 0590 ec3b 90da e83a 90a9 ffba
00000140: 136b 653c 9b41 493b d055 883c 0ac8 a1bc
00000150: 95e7 023d c9e8 85bc bb7c b93c 4fcf 98bb
00000160: 4780 11bc 664a c73b 3638 273c babd d63c
00000170: 7ab1 0c3c cc1a 193d 66fd 9e3d e98b ed3d
00000180: 8cda e53d b676 2a3e 4890 f83d 5723 443e
00000190: f8cf f83d ce5a 703d 725a ed3d 7453 f33d
000001a0: 58ee a23d f694 3abc 144d a23c bff3 9a3c
000001b0: 51e2 8fbb 09f5 f2ba 7ba7 353c e250 e03a
000001c0: 3497 79bc 5959 933b 604b 993c 3eff fdbb
000001d0: 8d28 af3c 5a02 36bd 8ecd cebc c3c4 2ebc
000001e0: 43b8 913c 5817 8d3d 2380 b53d 2e6b 3e3e
000001f0: 4c4d 5a3e 58b0 733e 911b 2c3e ee62 e93d
00000200: 8625 113d 7262 d63a a5df 2e3d 0fc3 3d3d
00000210: b0ca a53d 3ef3 923c e812 5c3d e233 833d
00000220: ebdf 59bb 23a8 5ebd e420 1239 7d4d 583c
00000230: d03c 8c3c 797a 49bc af7a 58bc 9be1 8938
00000240: c1ea 943b 27d2 d33a 7e6a 063d 59e5 073d
00000250: 0459 c43d 0ac0 af3d 1355 2d3e dead 4c3e
00000260: 5a84 1e3e c9f8 6c3c 84fa d6bc edfc 08be
00000270: 517f 16be fd5f c6bd 2ec4 58be 8f85 65bd
00000280: 2ea7 34bc ef4b 42bc 2999 333d 3ea1 e33b
00000290: e7a2 5239 bb74 133d 8f79 663b 64a0 033d
000002a0: 2675 b33b 937a b1bc ce1d 663c f7cf beb9
000002b0: 51a5 c5bb 40e7 703a 842f e63c 0f5a ab3d
000002c0: 9cdd 0d3e 7488 1e3e 6fb3 133e 5a5e a8bc
000002d0: ae49 d6bc 86ce 04be 7c5c 6bbe 97f4 92be
000002e0: f36a 57be fc54 9ebe 1d13 69be 0d52 77be
000002f0: a378 17be bba2 63bc ffca 67bd 49da 683d
00000300: d19b 463d 7e9d 51bb ce64 853c 19e0 d73b
00000310: 4280 bcbb 41a2 84bc a937 0dbd 3e06 e0bb
00000320: c78e 373d 6eb0 2a3d d898 a23d 39e9 0a3e
00000330: 3c6f 023e ac49 a53d d0c4 a33d 7ab6 8fbc
00000340: 7ed8 1dbe 9575 3ebe 05f3 83be be5d 59be
00000350: 55b0 39be e761 9ebe 2d06 97be 6be6 2fbe
00000360: 460b 35be 69ce d4bd 2102 1dbd 3f46 eb3c
00000370: ea6e 333d ecce 88bc fb02 8ebc 5c9a 833a
00000380: 9c86 44bc b176 813b 113f 563b 5402 3bbc
00000390: b7a4 433d e228 473d a573 a43d 5c0d f63d
000003a0: f96f 7a3e a848 ff3d 4f8f 8d3c 0466 91bd
000003b0: a84f 1bbe b145 03be b2b6 f1bd 549d 16bd
000003c0: 31f5 dbbb f802 013d a697 c9bd 25b0 00be
000003d0: 530f d3bd 7571 98bd 1404 20bd 5e7a 723a
000003e0: 82ec a33c 1529 843d 4e3c b3bc 607c 96bc
000003f0: 7b94 30bc 43e7 01bc 9a63 5d3a 556d 30bd

exp_avg f4 [10, 784]
0.0 0.0 0.0 0.0 0.0 0.0 0.0 0.0
0.0 0.0 0.0 0.0 2.801927e-39 6.135955e-39 0.0 0.0
0.0 0.0 0.0 0.0 0.0 0.0 0.0 0.0
0.0 0.0 0.0 0.0 0.0 0.0 0.0 0.0
-1.846534e-37 1.0774822e-34 1.8027066e-15 2.579277e-15 -8.7913265e-14 1.4451295e-07 1.1709526e-06 1.1058925e-06
1.9163127e-07 1.3721825e-07 3.809469e-07 -3.6488038e-07 3.8325408e-07 -4.688283e-09 -2.8884875e-08 1.7787636e-08
6.8911774e-08 1.6506576e-08 3.789988e-19 3.088476e-20 0.0 0.0 0.0 0.0
0.0 0.0 -2.0033318e-31 1.5658657e-22 -1.5467913e-08 -1.6587601e-09 -7.488543e-09 5.1995115e-09
1.504477e-07 1.9474423e-06 3.1921668e-06 3.914119e-06 2.7661752e-06 8.773644e-08 -1.0638346e-06 -6.2676224e-07
-5.3600292e-08 -1.657934e-06 -1.0857494e-06 -2.5433113e-07 -1.058145e-06 -6.716558e-07 -2.0308734e-07 -8.214313e-08
-3.0644408e-08 -4.2818325e-14 0.0 0.0 0.0 0.0 8.490955e-25 1.2166012e-21
-1.600588e-09 -1.1644015e-09 -5.6338085e-09 -1.6628091e-07 -1.9833578e-07 2.1888907e-06 3.19212e-06 3.2728224e-06
1.9972508e-06 4.795099e-07 -1.7683234e-06 -1.3884345e-06 1.4636902e-06 1.4565765e-06 -1.4208961e-06 -4.2505117e-06
-4.331387e-06 -1.2647874e-06 3.3935618e-07 -5.234883e-08 -1.416872e-08 2.0706338e-10 -2.642761e-29 0.0
0.0 -6.2165034e-21 1.896657e-15 6.674009e-14 -1.5855689e-09 7.775e-07 3.6715673e-07 4.7884484e-08
1.0922853e-06 5.8791843e-06 7.849198e-06 3.017629e-06 7.088402e-07 -3.4452232e-06 -7.93392e-06 -8.600684e-06
-5.0133003e-06 -2.6839236e-06 -4.5978795e-06 -1.0502455e-05 -8.002478e-06 -4.1868325e-06 -7.873082e-07 -6.975729e-07
-8.9711943e-07 -5.718062e-08 1.4099921e-08 1.952203e-23 0.0 0.0 -1.3131919e-08 3.9885794e-07
3.2921852e-07 2.2723175e-06 1.5012683e-06 3.0785227e-06 4.289597e-06 8.835005e-06 9.179466e-06 5.0891244e-06
1.3251238e-06 2.46356e-07 -1.1653174e-05 -1.37051165e-05 -1.278409e-05 -8.872268e-06 -6.692992e-06 -8.416328e-06
-6.224698e-06 -2.5498136e-06 1.1750041e-06 5.0310314e-07 -1.576419e-08 2.7268683e-07 4.7012488e-08 2.9203653e-23
0.0 2.071812e-30 -1.732878e-14 4.459464e-07 4.2970555e-07 -7.944122e-08 -3.9506727e-07 6.9787393e-07
2.6973375e-06 7.4564573e-06 7.404873e-06 3.8261297e-07 -3.812001e-06 -8.360696e-06 -8.738958e-06 -4.996215e-06
-7.115571e-06 -2.6791373e-08 4.7872727e-06 2.6603045e-06 -2.903023e-06 -2.516181e-06 3.0082413e-06 2.7037759e-06
2.0634288e-06 1.4367212e-06 2.3693178e-07 1.5944586e-08 -1.4900877e-18 7.0154704e-09 -1.0442924e-07 -1.412143e-06
-1.2479685e-06 -5.795017e-07 -1.679373e-06 -2.831527e-06 9.786619e-07 2.5965157e-06 2.5750303e-06 5.0356886e-07
-1.5374899e-06 -2.0424434e-06 -7.349374e-06 -3.6931488e-06 1.4704178e-06 4.8325924e-06 1.2637215e-05 8.609474e-06
4.2020924e-06 3.4131701e-06 4.508833e-06 6.158509e-06 2.248549e-06 2.7319538e-07 9.215052e-08 3.6513126e-10
-6.055863e-18 6.5254033e-09 -7.151748e-08 -1.4541956e-06 -2.6322969e-06 -2.4708277e-06 -4.999223e-06 -7.062331e-06
-2.05892e-07 4.6054633e-06 4.893204e-06 3.8385006e-06 -2.327303e-08 3.8539985e-09 -2.7777166e-06 7.2957573e-07
3.5716982e-06 1.7577107e-06 8.07182e-06 1.1166528e-05 7.164281e-06 4.2047545e-06 3.4268105e-06 4.6129553e-06
1.2425617e-06 -4.8542347e-07 2.4197107e-08 5.3782e-10 -9.828844e-19 5.844328e-09 -2.7776977e-08 -1.02694e-06
00000000: 0000 0000 0000 0000 0000 0000 0000 0000
00000010: 0000 0000 0000 0000 0000 0000 0000 0000
00000020: 0000 0000 0000 0000 0000 0000 0000 0000
00000030: a282 1e00 8cd0 4200 0000 0000 0000 0000
00000040: 0000 0000 0000 0000 0000 0000 0000 0000
00000050: 0000 0000 0000 0000 0000 0000 0000 0000
00000060: 0000 0000 0000 0000 0000 0000 0000 0000
00000070: 0000 0000 0000 0000 0000 0000 0000 0000
00000080: 5256 7b82 d238 0f07 11e6 0127 43db 3927
00000090: 8cf6 c5a9 6b2b 1b34 a029 9d35 2d6e 9435
000000a0: 34c3 4d34 4456 1334 f184 cc34 c7e4 c3b4
000000b0: 0ac2 cd34 9316 a1b1 831e f8b2 6dcb 9832
000000c0: a6fc 9333 58ca 8d32 aeb8 df20 62d9 111f
000000d0: 0000 0000 0000 0000 0000 0000 0000 0000
000000e0: 0000 0000 0000 0000 0f06 828c 324d 3d1b
000000f0: 4dde 84b2 6ffa e3b0 f6a6 00b2 63a7 b231
00000100: c08a 2134 ceb0 0236 0239 5636 0756 8336
00000110: 87a2 3936 9e69 bc33 14c9 8eb5 c63e 28b5
00000120: 2536 66b3 2e86 deb5 11ba 91b5 018b 88b4
00000130: 9605 8eb5 d64b 34b5 3910 5ab4 aa66 b0b3
00000140: e29d 03b3 2bd6 40a9 0000 0000 0000 0000
00000150: 0000 0000 0000 0000 2364 8317 fbd8 b71c
00000160: affb dbb0 bc08 a0b0 8193 c1b1 f38a 32b4
00000170: 20f6 54b4 dbe4 1236 3438 5636 a9a2 5b36
00000180: 8208 0636 abb7 0035 2157 edb5 3f5a bab5
00000190: 0374 c435 967f c335 9eb5 beb5 9e9f 8eb6
000001a0: 5556 91b6 c4c1 a9b5 c230 b634 26d6 60b3
000001b0: b16a 73b2 29ab 632f 0001 0690 0000 0000
000001c0: 0000 0000 55da ea9d 25ab 0827 0b49 9629
000001d0: 3feb d9b0 65b5 5035 a31d c534 8ca9 4d33
000001e0: a39a 9235 cf45 c536 0cb0 0337 7982 4a36
000001f0: 2147 3e35 7c34 67b6 ed1b 05b7 a84b 10b7
00000200: ec37 a8b6 751d 34b6 7c47 9ab6 b333 30b7
00000210: 6242 06b7 9e7c 8cb6 6857 53b5 d840 3bb5
00000220: 94d1 70b5 c296 75b3 1c3c 7232 35ce bc19
00000230: 0000 0000 0000 0000 ca9a 61b2 9e22 d634
00000240: 73bf b034 1e7e 1836 307f c935 9e98 4e36
00000250: 5cef 8f36 0f3a 1437 8201 1a37 3fc3 aa36
00000260: e8da b135 e942 8434 0082 43b7 07ef 65b7
00000270: 407b 56b7 1ada 14b7 5d94 e0b6 da33 0db7
00000280: c0dd d0b6 771d 2bb6 d5b4 9d35 fc0c 0735
00000290: d269 87b2 cb65 9234 c7ea 4933 5f38 0d1a
000002a0: 0000 0000 da15 280e 7215 9ca8 686a ef34
000002b0: 48b2 e634 4699 aab3 a219 d4b4 8855 3b35
000002c0: e803 3536 7b32 fa36 6077 f836 ed69 cd34
000002d0: aed1 7fb6 ea44 0cb7 8a9d 12b7 29a5 a7b6
000002e0: 4ac2 eeb6 da22 e6b2 5ca2 a036 af87 3236
000002f0: 8ed1 42b6 a9db 28b6 31e1 4936 8472 3536
00000300: 7079 0a36 5dd5 c035 5067 7e34 84f6 8832
00000310: ece5 dba1 bb0c f131 9542 e0b3 dd88 bdb5
00000320: df7f a7b5 0e8f 1bb5 d166 e1b5 4305 3eb6
00000330: 915a 8335 cd3f 2e36 afce 2c36 fd2c 0735
00000340: c05b ceb5 e910 09b6 a49a f6b6 d0d7 77b6
00000350: 2c5b c535 a727 a236 6d04 5437 6971 1037
00000360: b3ff 8c36 d10d 6536 954a 9736 31a5 ce36
00000370: c7e5 1636 b0ab 9234 49e4 c533 a8bb c82f
00000380: 026c dfa2 0e36 e031 2795 99b3 c82d c3b5
00000390: 84a6 30b6 7fd0 25b6 00bf a7b6 f6f8 ecb6
000003a0: 2913 5db4 a188 9a36 4d30 a436 78cc 8036
000003b0: efe9 c7b2 216c 8431 cf68 3ab6 10d8 4335
000003c0: 4fb1 6f36 7bea eb35 346c 0737 df57 3b37
000003d0: b564 f036 9116 8d36 28f8 6536 fcc8 9a36
000003e0: 18c6 a635 0c4e 02b5 00da cf32 b8d5 1330
000003f0: 530c 91a1 41cf c831 389a eeb2 64d5 89b5

exp_avg_sq f4 [10, 784]
0.0 0.0 0.0 0.0 0.0 0.0 0.0 0.0
0.0 0.0 0.0 0.0 6.819933e-16 3.2707658e-15 0.0 0.0
0.0 0.0 0.0 0.0 0.0 0.0 0.0 0.0
0.0 0.0 0.0 0.0 0.0 0.0 0.0 0.0
1.3372661e-16 1.2963977e-15 8.1326276e-14 2.3439833e-13 8.5782136e-13 8.6203695e-13 3.1327428e-12 3.424198e-12
1.5601388e-12 1.0551299e-12 1.6009396e-12 9.71377e-13 9.486511e-13 7.712947e-13 5.35774e-13 2.1155956e-13
1.831942e-13 2.1064615e-14 7.6630715e-15 1.8539438e-15 0.0 0.0 0.0 0.0
0.0 0.0 1.47819e-15 4.0105377e-16 1.1905076e-14 5.7926727e-14 1.6624253e-12 2.9709221e-12
5.280947e-12 1.0770724e-11 1.9811016e-11 2.2129479e-11 2.7036947e-11 3.1168176e-11 3.443374e-11 4.0552017e-11
3.5839214e-11 3.1037718e-11 2.028822e-11 1.1671148e-11 6.343833e-12 2.8322516e-12 1.3711099e-12 5.9027945e-13
2.781639e-13 5.40498e-14 0.0 0.0 0.0 0.0 1.0670977e-14 2.103592e-14
3.504494e-14 1.7743572e-12 6.370698e-12 1.1651813e-11 2.1703578e-11 4.719771e-11 6.7797185e-11 9.3155414e-11
1.083512e-10 1.2498542e-10 1.562329e-10 1.9086097e-10 1.7714323e-10 1.3399434e-10 9.571151e-11 5.944794e-11
3.1974874e-11 1.4922298e-11 6.5150827e-12 2.961296e-12 1.5116454e-12 1.1879844e-13 3.3617813e-14 0.0
0.0 1.3417274e-15 4.3258925e-14 3.070988e-14 1.1105129e-12 6.912869e-12 1.6082734e-11 3.5048086e-11
6.7750666e-11 1.3282708e-10 2.102347e-10 3.0990369e-10 4.4488296e-10 5.8384353e-10 7.539898e-10 8.7737534e-10
8.526269e-10 6.5425443e-10 4.72289e-10 2.9799768e-10 1.5511414e-10 7.757666e-11 3.5954247e-11 1.7634394e-11
6.684591e-12 1.2004328e-12 1.8001074e-13 6.4956103e-16 0.0 0.0 2.5447931e-14 5.627925e-13
4.376773e-12 1.9457082e-11 4.901794e-11 1.0243569e-10 2.026462e-10 3.6023354e-10 5.8328603e-10 9.1838004e-10
1.3531272e-09 1.9171276e-09 2.3861093e-09 2.6786628e-09 2.6179756e-09 2.195203e-09 1.6329432e-09 1.0020588e-09
5.4335303e-10 2.6500624e-10 1.218587e-10 5.9844525e-11 2.18568e-11 4.9824546e-12 8.6802787e-13 1.19110315e-14
0.0 4.312823e-18 3.8156114e-14 1.618666e-12 1.24286475e-11 4.363475e-11 1.1047176e-10 2.1842517e-10
4.0879486e-10 7.282045e-10 1.1916318e-09 1.8361904e-09 2.6534452e-09 3.515409e-09 4.225184e-09 4.536964e-09
4.4624016e-09 3.9573687e-09 3.0777572e-09 2.012365e-09 1.1662015e-09 6.026124e-10 2.7445377e-10 1.1965721e-10
3.994506e-11 1.3175161e-11 2.3582236e-12 1.3028456e-13 2.8335113e-16 9.7752474e-14 5.849468e-13 4.9522643e-12
2.5361204e-11 8.246255e-11 1.8767936e-10 3.5524342e-10 6.9839867e-10 1.2319057e-09 1.9577018e-09 2.8944063e-09
3.779158e-09 4.4883843e-09 4.8419526e-09 4.990833e-09 4.9813518e-09 4.671203e-09 3.9912305e-09 2.8502338e-09
1.7731439e-09 9.518437e-10 4.3248422e-10 1.8086295e-10 6.6243636e-11 2.2481395e-11 3.72049e-12 8.866535e-14
4.6783917e-15 7.6801944e-13 2.6106534e-12 1.2121585e-11 4.3662816e-11 1.1731481e-10 2.5965338e-10 5.244157e-10
1.0185754e-09 1.7716993e-09 2.6561222e-09 3.5308367e-09 4.076083e-09 4.1810333e-09 3.9680224e-09 3.9631685e-09
4.073699e-09 4.203052e-09 3.963633e-09 3.0717588e-09 2.0368174e-09 1.1496137e-09 5.48728e-10 2.1065216e-10
7.398198e-11 2.4427608e-11 4.521049e-12 1.83351e-13 2.1127934e-14 1.2481811e-12 4.248518e-12 1.7414344e-11
00000000: 0000 0000 0000 0000 0000 0000 0000 0000
00000010: 0000 0000 0000 0000 0000 0000 0000 0000
00000020: 0000 0000 0000 0000 0000 0000 0000 0000
00000030: 3992 4426 fbae 6b27 0000 0000 0000 0000
00000040: 0000 0000 0000 0000 0000 0000 0000 0000
00000050: 0000 0000 0000 0000 0000 0000 0000 0000
00000060: 0000 0000 0000 0000 0000 0000 0000 0000
00000070: 0000 0000 0000 0000 0000 0000 0000 0000
00000080: 212d 1a25 a2d4 ba26 6821 b729 5cf4 832a
00000090: 8b74 712b 4fa4 722b 7a72 5c2c def4 702c
000000a0: ed91 db2b 107f 942b ee4f e12b 8bb5 882b
000000b0: c282 852b a419 592b 96ce 162b e431 6e2a
000000c0: 2242 4e2a b2bb bd28 ae0b 0a28 3a97 0527
000000d0: 0000 0000 0000 0000 0000 0000 0000 0000
000000e0: 0000 0000 0000 0000 9607 d526 1731 e725
000000f0: 7976 5628 7c70 8229 2ff7 e92b 600f 512c
00000100: 8bce b92c 077b 3d2d 7142 ae2d 28a7 c22d
00000110: cbd1 ed2d 3f14 092e f270 172e 8359 322e
00000120: 5e9f 1d2e 5d81 082e 0375 b22d 2e52 4d2d
00000130: 2b34 df2c 4f4d 472c 71f7 c02b 1e26 262b
00000140: a597 9c2a 2d6b 7329 0000 0000 0000 0000
00000150: 0000 0000 0000 0000 323b 4028 8779 bd28
00000160: 11d4 1d29 f5b7 f92b 2526 e02c 1afb 4c2d
00000170: 1de8 be2d e693 4f2e 6c16 952e d6d9 cc2e
00000180: 4e44 ee2e 456c 092f a7c7 2b2f 96da 512f
00000190: 63c5 422f 0e54 132f ca78 d22e 37ba 822e
000001a0: 82a0 0c2e 0742 832d a63a e52c f761 502c
000001b0: c4be d42b 52c1 052a b366 1729 0000 0000
000001c0: 0000 0000 015d c126 25d2 4229 154e 0a29
000001d0: 724a 9c2b 9739 f32c 1977 8d2d a324 1a2e
000001e0: 3cfc 942e 800b 122f cf27 672f 115f aa2f
000001f0: b693 f42f 567c 2030 5141 4f30 cd2b 7130
00000200: 495e 6a30 10d7 3330 62d2 0130 72d3 a32f
00000210: c08c 2a2f c797 aa2e e220 1e2e 201d 9b2d
00000220: 7131 eb2c 26f2 a82b 90ac 4a2a 2539 3b26
00000230: 0000 0000 0000 0000 ef36 e528 7969 1e2b
00000240: 77fe 992c 7425 ab2d 4b95 572e 2b42 e12e
00000250: d6cf 5e2f 5d0a c62f 1b55 2030 4071 7c30
00000260: eef8 b930 77be 0331 e1f8 2331 8913 3831
00000270: eae7 3331 6bda 1631 156e e030 cfb8 8930
00000280: 125b 1530 50b0 912f 2dfc 052f 7999 832e
00000290: 2341 c02d f64d af2c 0054 742b f091 5628
000002a0: 0000 0000 761d 9f22 01d7 2b29 97ce e32b
000002b0: a7a5 5a2d 5ce8 3f2e 12ee f22e 3829 702f
000002c0: c3bc e02f d62a 4830 d1c6 a330 355d fc30
000002d0: e757 3631 bb93 7131 1d2d 9131 8fe3 9b31
000002e0: b353 9931 62f9 8731 7a80 5331 e649 0a31
000002f0: 1148 a030 14a5 2530 efe1 962f 8390 032f
00000300: 24ae 2f2e a6c7 672d fbf1 252c f8af 122a
00000310: 3f57 a325 771e dc29 dca5 242b 083e ae2c
00000320: 5b14 df2d 4a56 b52e 0b5b 4e2f 114c c32f
00000330: 70f9 3f30 d44f a930 4188 0631 efe6 4631
00000340: d3d9 8131 3f38 9a31 445e a631 d57b ab31
00000350: 6f28 ab31 5680 a031 3c23 8931 d8dd 4331
00000360: f4b2 f330 06d2 8230 bec2 ed2f 65dc 462f
00000370: daab 912e 9abf c52d 32e7 822c 18a8 c729
00000380: 8c8e a827 a22d 582b 5ab5 372c c43e 552d
00000390: f607 402e 2ffd 002f f7be 8e2f 7926 1030
000003a0: f0fd 8b30 2180 f330 ff86 3631 23a3 7231
000003b0: 9b0d 8c31 c2a8 8f31 1857 8831 662c 8831
000003c0: a3f8 8b31 706a 9031 7c30 8831 f416 5331
000003d0: 12f8 0b31 7000 9e30 4dd5 1630 509d 672f
000003e0: 27b0 a22e 15de d62d fd11 9f2c 546f 4e2a
000003f0: b34d be28 77aa af2b 407b 952c 9e2d 992d

exp_avg f4 [10]
1.9951578e-05 6e-45 6e-45 -1.5083866e-05 6e-45 5.979467e-07 2.9165333e-06 6e-45
6e-45 6e-45
00000000: b05d a737 0400 0000 0400 0000 b610 7db7
00000010: 0400 0000 9682 2035 a9b9 4336 0400 0000
00000020: 0400 0000 0400 0000

exp_avg_sq f4 [10]
1.3458452e-08 1.0536752e-15 4.1916336e-16 8.545559e-09 7.584409e-14 5.8903074e-09 6.533692e-09 1.7628748e-14
1.6768507e-13 1.05676034e-13
00000000: e636 6732 c1d9 9726 98a1 f125 c4cf 1232
00000010: 24c9 aa29 b163 ca31 f67e e031 20c9 9e28
00000020: eecb 3c2a 16f6 ed29

exp_avg f4 [10, 10]
-4.5010773e-05 -6e-45 -6e-45 3.668334e-06 -6e-45 -1.5533371e-05 -6.0515536e-05 -6e-45
-6e-45 -6e-45 0.00018431843 0.0 0.0 0.00023037037 -6e-45 2.4968758e-05
0.00013096911 -6e-45 -6e-45 -6e-45 0.00018086114 6e-45 6e-45 0.00012637503
6e-45 1.1058143e-05 0.00023175034 6e-45 6e-45 6e-45 -8.861333e-05 -6e-45
-6e-45 -6.235095e-05 -6e-45 5.5641172e-05 -0.00010069303 6e-45 -6e-45 -6e-45
-1.4965322e-14 6e-45 6e-45 6e-45 6e-45 -2.600239e-14 -1.3235553e-14 6e-45
6e-45 6e-45 -8.745466e-06 -6e-45 -6e-45 -4.3947184e-05 -6e-45 -1.80932e-05
1.7859591e-05 -6e-45 -6e-45 -6e-45 -0.0001247227 6e-45 6e-45 -0.00015527393
6e-45 -0.00012664245 -0.000127564 6e-45 6e-45 6e-45 0.00013752835 0.0
0.0 4.1245505e-05 -6e-45 -8.2862716e-05 0.00020945487 -6e-45 -6e-45 0.0
-0.000116180185 6e-45 6e-45 -8.634546e-05 6e-45 4.852001e-05 -0.00014844628 6e-45
6e-45 6e-45 -3.7218622e-05 0.0 0.0 -4.76211e-05 0.0 -5.2023747e-06
-5.166892e-06 6e-45 0.0 0.0
00000000: f3c9 3cb8 0400 0080 0400 0080 802d 7636
00000010: 0400 0080 a94d 82b7 10d2 7db8 0400 0080
00000020: 0400 0080 0400 0080 9a45 4139 0000 0000
00000030: 0000 0000 938f 7139 0400 0080 0074 d137
00000040: c154 0939 0400 0080 0400 0080 0400 0080
00000050: 8ba5 3d39 0400 0000 0400 0000 8a83 0439
00000060: 0400 0000 5d86 3937 0202 7339 0400 0000
00000070: 0400 0000 0400 0000 ebd5 b9b8 0400 0080
00000080: 0400 0080 69c2 82b8 0400 0080 4160 6938
00000090: 292b d3b8 0400 0000 0400 0080 0400 0080
000000a0: afcb 86a8 0400 0000 0400 0000 0400 0000
000000b0: 0400 0000 6e35 eaa8 376e 6ea8 0400 0000
000000c0: 0400 0000 0400 0000 7eb9 12b7 0400 0080
000000d0: 0400 0080 ee53 38b8 0400 0080 dac6 97b7
000000e0: 2ed1 9537 0400 0080 0400 0080 0400 0080
000000f0: ffc7 02b9 0400 0000 0400 0000 07d1 22b9
00000100: 0400 0000 53cb 04b9 b3c2 05b9 0400 0000
00000110: 0400 0000 0400 0000 7c35 1039 0000 0000
00000120: 0000 0000 06ff 2c38 0400 0080 95c6 adb8
00000130: 1da1 5b39 0400 0080 0400 0080 0000 0000
00000140: c3a5 f3b8 0400 0000 0400 0000 5e14 b5b8
00000150: 0400 0000 f781 4b38 3fa8 1bb9 0400 0000
00000160: 0400 0000 0400 0000 311b 1cb8 0000 0000
00000170: 0000 0000 c4bc 47b8 0000 0000 0f90 aeb6
00000180: 445f adb6 0400 0000 0000 0000 0000 0000

exp_avg_sq f4 [10, 10]
6.869095e-07 1.1285083e-15 1.03474405e-17 1.3555521e-06 1.53517e-13 6.3769954e-07 6.009501e-07 1.7015267e-13
2.7922854e-13 8.443205e-16 4.9217164e-07 0.0 0.0 9.2014074e-07 3.8810715e-15 4.5367676e-07
4.33777e-07 6.0095565e-14 8.281008e-14 7.561093e-20 9.721749e-07 2.1985456e-16 1.00343245e-17 1.8863659e-06
2.8405531e-14 8.176679e-07 8.650444e-07 6.994412e-15 1.6120726e-14 4.33551e-16 2.728058e-07 1.6595586e-16
6.115718e-18 5.4618346e-07 3.836153e-14 2.893947e-07 2.4291387e-07 3.3282828e-14 4.555957e-14 5.323365e-16
1.5579754e-12 3.3986316e-15 1.0797619e-16 1.38605354e-14 2.3022437e-13 4.4711327e-12 2.608246e-12 1.1039839e-13
1.3868995e-13 5.7918825e-15 2.0041976e-07 3.2707462e-15 7.9734116e-17 3.988441e-07 4.765234e-13 1.8064024e-07
1.7555587e-07 3.139296e-13 4.630513e-13 5.0656356e-15 1.6593367e-06 2.4647246e-15 4.073069e-17 9.02206e-06
2.627625e-13 2.088455e-06 1.8571094e-06 1.2430389e-13 1.5172512e-13 1.5200955e-15 1.6851975e-06 0.0
0.0 3.3835809e-06 2.301631e-16 1.3377714e-06 1.5211061e-06 3.4733125e-14 6.034916e-14 0.0
1.0712781e-06 1.5837367e-15 4.0938035e-17 1.8488706e-06 2.2560014e-13 8.350082e-07 9.690539e-07 1.4584541e-13
1.923799e-13 3.1670236e-15 3.985599e-07 0.0 0.0 8.152387e-07 0.0 3.9187725e-07
3.5474628e-07 3.2153024e-20 0.0 0.0
00000000: 1064 3835 9ca2 a226 68e0 3e23 6af0 b535
00000010: 43d8 2c2a 612e 2b35 fa50 2135 2b93 3f2a
00000020: 1331 9d2a db5b 7326 c71d 0435 0000 0000
00000030: 0000 0000 97ff 7635 91d4 8b27 dc90 f334
00000040: dbe1 e834 bc52 8729 c378 ba29 0188 b21f
00000050: ad7b 8235 9d79 7d25 c219 3923 0a2f fd35
00000060: b2da ff28 b67d 5b35 6635 6835 1000 fc27
00000070: dd33 9128 d6ec f925 2576 9234 8655 3f25
00000080: 53a1 e122 719d 1235 d5c3 2c29 1b5e 9b34
00000090: d469 8234 7de4 1529 9c2e 4d29 806f 1926
000000a0: fb43 db2b b0e5 7427 e4f9 f824 70b0 7928
000000b0: d49a 812a 6250 9d2c fc89 372c 5798 f829
000000c0: a826 1c2a b0ac d027 f732 5734 9eae 6b27
000000d0: b7da b724 b720 d634 2121 062b 03f6 4134
000000e0: 6e80 3c34 06ba b02a 5d56 022b 3e82 b627
000000f0: 60b6 de35 259a 3127 50d6 3b24 745d 1737
00000100: 11ec 932a 6227 0c36 cb41 f935 28f4 0b2a
00000110: cad3 2a2a a011 db26 f22e e235 0000 0000
00000120: 0000 0000 7a11 6336 14ae 8425 7a8d b335
00000130: cf28 cc35 916c 1c29 ece4 8729 0000 0000
00000140: d6c8 8f35 923d e426 1acb 3c24 b626 f835
00000150: d000 7e2a 5425 6035 7010 8235 1435 242a
00000160: bb99 582a 4635 6427 a8f9 d534 0000 0000
00000170: 0000 0000 c7d6 5a35 0000 0000 3363 d234
00000180: f573 be34 9fd6 171f 0000 0000 0000 0000

exp_avg f4 [10]
-2.176721e-06 9.712747e-06 1.623536e-05 -2.3012449e-06 -1.144998e-14 -4.2398106e-06 -4.7504695e-05 -5.454193e-07
3.4040784e-06 2.9349194e-06
00000000: c813 12b6 eef3 2237 2c31 8837 166f 1ab6
00000010: b643 4ea8 b243 8eb6 c73f 47b8 ee68 12b5
00000020: 9f71 6436 88f5 4436

exp_avg_sq f4 [10]
1.8496106e-08 1.3081024e-08 2.5589978e-08 7.6487785e-09 1.2147263e-11 5.389891e-09 9.2752245e-08 4.4041325e-08
2.3977115e-08 1.1410229e-08
00000000: 5ee1 9e32 f4ba 6032 f5d0 db32 af67 0332
00000010: 69b2 552d fc31 b931 162f c733 f327 3d33
00000020: 3cf6 cd32 b806 4432
